machinelearning/brevitas/lplenet_test.pth (torch, 667122 bytes, 11 tensors)

conv1.weight f4 [16, 3, 3, 3]
0.09632034 0.30387592 0.11501127 0.5710284 0.57195204 0.56747115 0.5692042 0.5701135
0.56847113 -0.56643707 -0.56542796 -0.47607428 -0.35632455 -0.014562033 -0.061618753 0.09735516
-0.111041844 -0.47088775 -0.44639525 0.096368976 0.29199728 0.28860715 0.5708165 0.5654519
0.47743377 0.48562348 0.29366258 -0.5602871 -0.56937325 -0.5695492 0.221445 -0.097360335
0.085765295 0.56641537 0.5675124 0.5655358 -0.5665523 -0.56792915 -0.5691485 0.087697685
0.067485444 0.28862396 0.5653796 0.5528279 0.56676435 -0.5659362 -0.57022846 -0.56921357
-0.30024305 -0.24482605 -0.0994269 0.5662457 0.56520915 0.565602 -0.114110716 -0.1607125
0.0028780627 0.13081187 -0.0768563 0.21600564 -0.15417372 0.082546465 0.09423177 0.1929161
-0.020825924 0.17760292 0.102721184 -0.13994703 -0.039332576 -0.17642386 0.05062423 -0.05367105
0.10740139 -0.12604006 0.096929975 -0.12930602 -0.14291215 -0.10071333 0.09451612 -0.19643833
0.11765242 0.5628212 0.56625456 0.5640024 0.5643763 0.5666779 0.5625651 0.56331044
0.5629249 0.558602 -0.4804418 -0.5625596 -0.5551521 -0.47735137 -0.4809772 -0.5672089
-0.20040567 -0.5687459 -0.5664774 0.13741276 -0.2856418 -0.09801546 -0.08978973 -0.47873777
-0.4789596 0.09809812 -0.4825442 -0.33162686 -0.56456816 -0.56467706 -0.42373028 -0.56746066
-0.5687695 -0.561641 -0.56719273 -0.5677528 -0.5661359 -0.28918585 0.28450674 0.28208333
-0.0975612 0.47433922 0.21821235 -0.05641794 0.46946728 0.47119996 0.5655858 0.5649319
0.5659585 0.562947 0.566192 0.5677922 0.5649048 0.5663226 0.5678167 -0.08665434
0.096749246 -0.20088907 -0.28658062 -0.21762659 -0.53751343 -0.37283674 -0.5635482 -0.5673822
-0.072792284 -0.09440246 -0.035206396 -0.08727845 -0.45914814 -0.43433064 -0.097178645 -0.44647044
-0.51984376 0.5646161 0.52621657 0.28074124 0.0945558 0.3520668 -0.1955175 0.36755455
-0.020300671 -0.087953076 0.56406593 0.38357955 -0.568857 0.56820273 0.28585017 -0.56536365
0.5655777 0.09410357 -0.56179607 0.5676884 0.09185662 -0.56736374 0.5681872 -0.28717119
-0.567897 0.5680776 -0.5305198 -0.56088364 0.5673125 0.09380433 -0.5701648 0.5611296
0.08902892 -0.5685326 0.56740725 -0.28744438 -0.5619965 0.2971435 -0.5698113 0.56535786
0.28853443 -0.5697739 0.5629823 0.47582123 -0.567763 0.2865995 0.28433436 -0.56905067
-0.32707968 0.23241591 -0.56733644 -0.10374361 0.14097966 -0.56850475 -0.16381906 0.48423684
-0.5700444 0.09324026 0.5551062 -0.5668015 0.34022272 0.27880824 -0.5693982 0.3031484
-0.14200151 -0.57051104 -0.5699813 0.52204895 -0.33034354 -0.56982785 0.13437143 0.5562413
-0.47686267 0.26368946 -0.5686764 -0.5695562 0.56130636 0.56291837 -0.5690971 0.56188166
0.56378984 0.19188432 0.090420276 -0.56530994 -0.56777257 0.56477684 0.2852049 -0.5699331
0.5579838 0.5670662 -0.053101894 -0.5634604 0.4773149 -0.5497115 -0.5644659 0.284572
-0.48025542 -0.56343627 -0.28654262 0.10108781 0.56641716 0.5674522 0.5682156 0.48980615
00000000: 9943 c53d a095 9b3e 078b eb3d eb2e 123f
00000010: 736b 123f ca45 113f 5eb7 113f f5f2 113f
00000020: 5387 113f 0502 11bf e3bf 10bf 02c0 f3be
00000030: 2c70 b6be 9895 6ebc f263 7cbd 2462 c73d
00000040: e869 e3bd 3318 f1be eb8d e4be 195d c53d
00000050: ab80 953e 51c4 933e 0821 123f 75c1 103f
00000060: 3372 f43e a4a3 f83e f15a 963e fa6e 0fbf
00000070: 72c2 11bf facd 11bf 7ac2 623e db64 c7bd
00000080: b7a5 af3d 9900 113f 7e48 113f f4c6 103f
00000090: 9209 11bf ce63 11bf b7b3 11bf d89a b33d
000000a0: cf35 8a3d 85c6 933e b8bc 103f 2186 0d3f
000000b0: 7817 113f 32e1 10bf 7efa 11bf fbb7 11bf
000000c0: 75b9 99be aeb3 7abe 55a0 cbbd 7af5 103f
000000d0: 8cb1 103f 4bcb 103f e1b2 e9bd d191 24be
000000e0: e19d 3c3b 8cf3 053e d666 9dbd 9530 5d3e
000000f0: b7df 1dbe 1f0e a93d 96fc c03d cc8b 453e
00000100: 219b aabc 8add 353e 7c5f d23d 464e 0fbe
00000110: 321b 21bd 75a8 34be 5a5b 4f3d 2dd6 5bbd
00000120: 43f5 db3d a510 01be 3983 c63d cc68 04be
00000130: 9057 12be ca42 cebd ab91 c13d 2127 49be
00000140: c1f3 f03d 0d15 103f 0ff6 103f 7662 103f
00000150: f77a 103f ce11 113f 4404 103f 1d35 103f
00000160: d91b 103f 8a00 0f3f 78fc f5be e803 10bf
00000170: 731e 0ebf 6667 f4be a542 f6be 9a34 11bf
00000180: 2537 4dbe 5599 11bf aa04 11bf eeb5 0c3e
00000190: a43f 92be 54bc c8bd aee3 b7bd 1e1d f5be
000001a0: 313a f5be abe7 c83d 0910 f7be ffca a9be
000001b0: 8a87 10bf ad8e 10bf 2df3 d8be 1a45 11bf
000001c0: e19a 11bf b4c7 0fbf 8b33 11bf 3f58 11bf
000001d0: 48ee 10bf 2b10 94be deaa 913e 3a6d 903e
000001e0: 2bce c7bd 97dc f23e 0f73 5f3e 7f16 67bd
000001f0: 045e f03e 1f41 f13e 3bca 103f 619f 103f
00000200: a8e2 103f 4b1d 103f f5f1 103f d45a 113f
00000210: 9a9d 103f 85fa 103f 6f5c 113f d577 b1bd
00000220: 7824 c63d ddb5 4dbe b2ba 92be 81d9 5ebe
00000230: 7b9a 09bf 75e4 bebe b244 10bf f63f 11bf
00000240: 1f14 95bd 1456 c1bd 9534 10bd 0bbf b2bd
00000250: 7715 ebbe 9660 debe 9905 c7bd c697 e4be
00000260: 7b14 05bf ae8a 103f 21b6 063f 51bd 8f3e
00000270: 79a6 c13d 1a42 b43e bd35 48be 1c30 bc3e
00000280: 984d a6bc be20 b4bd a066 103f 8a64 c43e
00000290: 9da0 11bf bc75 113f f45a 923e acbb 10bf
000002a0: b3c9 103f 5fb9 c03d ded1 0fbf 0754 113f
000002b0: 531f bc3d c03e 11bf b774 113f 1a08 93be
000002c0: b361 11bf 896d 113f 25d0 07bf 1296 0fbf
000002d0: 643b 113f 7c1c c03d 52f6 11bf 31a6 0f3f
000002e0: cb54 b63d 5a8b 11bf 9a41 113f e92b 93be
000002f0: 01df 0fbf 3123 983e 27df 11bf 4bbb 103f
00000300: c9ba 933e b4dc 11bf 9c1f 103f d79e f33e
00000310: ea58 11bf 2bbd 923e 4694 913e 4ead 11bf
00000320: fd76 a7be 70fe 6d3e f63c 11bf 8877 d4bd
00000330: f95c 103e 8789 11bf 2fc0 27be e4ed f73e
00000340: 6eee 11bf c0f4 be3d 711b 0e3f e719 11bf
00000350: ac31 ae3e f4bf 8e3e 15c4 11bf 4436 9b3e
00000360: d868 11be 030d 12bf 4bea 11bf 00a5 053f
00000370: ca22 a9be 3de0 11bf aa98 093e d465 0e3f
00000380: 5827 f4be 4e02 873e c794 11bf 6fce 11bf
00000390: c6b1 0f3f 6b1b 103f 59b0 11bf 7ad7 0f3f
000003a0: 8854 103f 537d 443e 442e b93d 27b8 10bf
000003b0: 8b59 11bf 3795 103f 6006 923e 23e7 11bf
000003c0: 07d8 0e3f 402b 113f 5f81 59bd f13e 10bf
000003d0: 9e62 f43e e5b9 0cbf d680 10bf 6cb3 913e
000003e0: 0ae4 f5be 5c3d 10bf b7b5 92be 2007 cf3d
000003f0: b700 113f 8c44 113f 9476 113f dfc7 fa3e

conv1.bias f4 [16]
-2.1209722 0.0045260666 -0.09016059 0.4438693 -0.34527066 1.0074862 0.09380927 0.11237401
0.009616428 0.3328848 -0.62666434 0.28740856 -0.3716851 0.051576823 0.24833427 0.18897413
00000000: 02be 07c0 664f 943b 1ea6 b8bd d642 e33e
00000010: 51c7 b0be 4ff5 803f 131f c03d 5824 e63d
00000020: 398e 1d3c e06f aa3e 136d 20bf 3727 933e
00000030: 824d bebe 3842 533d 574b 7e3e 6f82 413e

conv2.weight f4 [32, 16, 3, 3]
0.042642895 -0.12974912 -0.20895652 -0.0068172687 0.06914629 0.13251267 -0.12742035 0.0894009
-0.042836472 -0.07409964 -0.2358139 0.20222238 -0.25875598 0.25242344 0.04484107 0.04898495
0.2563735 0.0611829 0.057573985 0.07823566 -0.042138234 0.02663921 -0.04322195 0.04260559
-0.03244885 0.079293296 0.0001922782 0.25500545 0.25602323 -0.063013256 0.120186485 -0.21490769
-0.260716 0.13051154 -0.25128457 -0.20067686 -0.087980166 0.04553947 0.046763938 -0.040758863
-0.045660976 0.13138717 -0.25331786 0.25575176 -0.12755358 -0.16792026 0.15110531 0.03636794
0.14067581 0.052615568 -0.12735645 0.0822009 -0.22608532 -0.041027762 -0.041373555 0.2544913
-0.038844794 0.26128763 0.25270623 -0.1012164 0.26149333 -0.21094291 -0.24001041 -0.2577391
0.2189403 0.2313789 -0.042751126 0.25740904 0.21830036 0.13041331 -0.25205392 0.12837279
-0.13657969 0.037783913 0.24676165 -0.019206522 0.24498878 0.046617724 -0.13668941 0.027778223
-0.12978448 0.1070127 0.07849636 0.18053053 -0.043897346 -0.03795017 -0.018116385 -0.13108295
-0.2380964 -0.25223517 -0.042951893 -0.0958621 0.036384348 0.032584887 0.25962597 0.043827645
0.2489626 -0.040162183 -0.24266037 -0.25762603 -0.13201843 0.25409657 -0.25268382 0.25991735
0.25775883 0.1251833 0.12862262 -0.0413506 0.2549823 0.2515796 -0.19515324 0.25998753
-0.23982705 -0.2461392 0.23837736 -0.20270084 -0.24500409 0.041494746 0.06514626 0.044257384
0.023295369 0.029279374 -0.01066624 -0.04360024 0.009834153 0.011903905 -0.13466671 -0.047262944
0.21853408 -0.21190272 0.26019433 0.2510628 0.25785542 0.25127178 -0.21930084 -0.2439267
0.23352705 0.25837284 -0.07876432 0.12629297 0.25834092 -0.124624975 -0.25946122 -0.25605932
-0.0415461 -0.22290698 -0.22890972 -0.1287279 -0.22488227 -0.06778639 0.13646588 -0.1364354
-0.2593515 -0.098100804 -0.25800082 -0.25589573 0.23533149 -0.25731316 -0.2539593 0.25716743
0.22418503 -0.03211896 -0.045202367 -0.009726828 0.012474196 -0.07725153 -0.0050804527 0.031527307
0.036104117 0.045766406 -0.017693778 0.048386052 0.24758726 0.2266 -0.12900631 0.056229327
0.042862665 -0.25296405 -0.14391164 -0.08723217 -0.04328505 -0.11371424 -0.0023136234 0.029513676
-0.25672364 0.06716896 0.01339796 -0.2544705 -0.25676954 -0.04333385 0.24526207 -0.030108169
0.092560634 0.22416589 0.1387887 -0.25565708 0.23058864 0.2588133 0.2183119 -0.25541964
-0.13769399 0.25510684 0.23297241 -0.25606045 0.13614614 0.260706 -0.046762437 0.10924435
0.05047424 -0.14036258 -0.19880687 0.2519826 0.14090358 -0.19202855 0.21850984 0.11322374
0.04690759 -0.0714559 -0.21623458 0.24204867 0.25467306 -0.24707232 0.19248897 0.2601428
0.0015871876 0.01750933 -0.024223238 0.20128049 0.044109687 -0.1417182 0.18900141 -0.2564272
-0.2601136 -0.13295761 -0.0035453131 -0.19399221 -0.16033958 -0.12338476 -0.156806 -0.0855153
-0.041744694 -0.2607296 -0.25249317 -0.21837659 0.25699046 -0.13099618 -0.07621731 0.2574267
0.25544485 -0.25606933 -0.2591365 0.18634847 0.12658858 -0.023158375 -0.041520827 0.044501565
00000000: 51aa 2e3d f4dc 04be b3f8 55be 6563 dfbb
00000010: 929c 8d3d 67b1 073e 7b7a 02be d217 b73d
00000020: 4c75 2fbd 8dc1 97bd 3379 71be 6213 4f3e
00000030: aa7b 84be a53d 813e 45ab 373d 71a4 483d
00000040: 6343 833e ec9a 7a3d b3d2 6b3d 053a a03d
00000050: 2499 2cbd 793a da3c 8009 31bd 3383 2e3d
00000060: 16e9 04bd 8664 a23d 499e 4939 1390 823e
00000070: 7a15 833e 180d 81bd 5524 f63d c310 5cbe
00000080: 917c 85be d1a4 053e 5fa8 80be 3c7e 4dbe
00000090: f22e b4bd 9887 3a3d 8b8b 3f3d c4f2 26bd
000000a0: 0107 3bbd 5c8a 063e e1b2 81be e5f1 823e
000000b0: 689d 02be 4af3 2bbe 5abb 1a3e 8df6 143d
000000c0: 520d 103e 6c83 573d bb69 02be f258 a83d
000000d0: e982 67be ba0c 28bd 5177 29bd af4c 823e
000000e0: b81b 1fbd 7ec7 853e b662 813e 8b4a cfbd
000000f0: 74e2 853e 6b01 58be 4ac5 75be 61f6 83be
00000100: e331 603e 97ee 6c3e ce1b 2fbd 1ecb 833e
00000110: 218a 5f3e 118b 053e 360d 81be 2874 033e
00000120: 8cdb 0bbe 4ec3 1a3d 16af 7c3e ff56 9dbc
00000130: 57de 7a3e 3af2 3e3d 4ff8 0bbe 288f e33c
00000140: 39e6 04be 7929 db3d b3c2 a03d ffdc 383e
00000150: b4cd 33bd a371 1bbd d068 94bc 9c3a 06be
00000160: 8bcf 73be f824 81be 53ee 2fbd 5953 c4bd
00000170: c107 153d bb77 053d b2ed 843e 9e84 333d
00000180: 0df0 7e3e 1a81 24bd f67b 78be 8fe7 83be
00000190: d72f 07be f218 823e c65f 81be e313 853e
000001a0: f7f8 833e 0d30 003e a6b5 033e 3f5f 29bd
000001b0: 0a8d 823e 0bcf 803e 40d6 47be 161d 853e
000001c0: 3995 75be ea0b 7cbe 3219 743e cf90 4fbe
000001d0: 5ae2 7abe 65f6 293d 676b 853d 3b47 353d
000001e0: eed5 be3c 4cdb ef3c 74c1 2ebc 2a96 32bd
000001f0: 6d1f 213c 9908 433c 12e6 09be ca96 41bd
00000200: 66c7 5f3e 07fd 58be 3138 853e 4e8b 803e
00000210: a005 843e b2a6 803e 6690 60be ecc7 79be
00000220: b721 6f3e 7249 843e 304f a1bd f252 013e
00000230: 4345 843e 613b ffbd 1ad8 84be 351a 83be
00000240: 3e2c 2abd ba41 64be 4f67 6abe 3fd1 03be
00000250: 8a47 66be 97d3 8abd b6bd 0b3e b9b5 0bbe
00000260: b8c9 84be 13e9 c8bd af18 84be c404 83be
00000270: bdfa 703e 8dbe 83be f406 82be 73ab 833e
00000280: c390 653e 2c8f 03bd 1e26 39bd 465d 1fbc
00000290: 9260 4c3c 0d36 9ebd ed79 a6bb c722 013d
000002a0: e9e1 133d 8e75 3b3d 8bf2 90bc 7430 463d
000002b0: 8487 7d3e d509 683e 3b1a 04be b950 663d
000002c0: c390 2f3d 8184 81be 935d 13be c8a6 b2bd
000002d0: aa4b 31bd 03e3 e8bd 29a0 17bb aac6 f13c
000002e0: 4871 83be e18f 893d 1e83 5b3c f549 82be
000002f0: 4c77 83be d67e 31bd fb25 7b3e 68a5 f6bc
00000300: 6e90 bd3d be8b 653e a01e 0e3e 7ce5 82be
00000310: 6e1f 6c3e 2d83 843e 288d 5f3e 5dc6 82be
00000320: a7ff 0cbe 5d9d 823e 5290 6e3e 5b1a 83be
00000330: e569 0b3e 427b 853e f889 3fbd 80bb df3d
00000340: 14be 4e3d 35bb 0fbe 0794 4bbe dd03 813e
00000350: 0749 103e 22a3 44be 0bc1 5f3e d9e1 e73d
00000360: 2c22 403d 7957 92bd 996c 5dbe 9bdb 773e
00000370: 8264 823e 8700 7dbe d41b 453e 7031 853e
00000380: 2e09 d03a ba6f 8f3c d06f c6bc 791c 4e3e
00000390: 5cac 343d 931e 11be 9689 413e 6d4a 83be
000003a0: 9c2d 85be 0a26 08be 7c58 68bb e5a5 46be
000003b0: 0f30 24be 26b1 fcbd c191 20be a522 afbd
000003c0: 7cfc 2abd 5a7e 85be c946 81be 1d9e 5fbe
000003d0: 4194 833e dd23 06be d217 9cbd 6fcd 833e
000003e0: abc9 823e 851b 83be 8aad 84be 22d2 3e3e
000003f0: 70a0 013e a2b6 bdbc be11 2abd 4647 363d

conv2.bias f4 [32]
-1.3212026 -0.015295455 -0.30868822 0.114753105 -0.06573249 -0.8613088 -0.20467032 -0.65114063
-0.4543201 0.011126905 -0.13933456 -0.2548038 -0.2794495 -0.12074065 -0.7199062 -0.4198703
-0.6361704 -0.14227253 -0.2591009 -0.7590423 -0.15323287 -0.3586061 -0.4897831 0.3974297
-0.60780007 -0.6289852 -0.793852 -0.3915576 0.5863444 1.0256702 0.25764218 -0.16952676
00000000: 2b1d a9bf ca99 7abc 620c 9ebe ad03 eb3d
00000010: c19e 86bd bc7e 5cbf 1995 51be 27b1 26bf
00000020: a59c e8be 9f4d 363c b8ad 0ebe a575 82be
00000030: 0114 8fbe e046 f7bd c64b 38bf 3df9 d6be
00000040: 10dc 22bf e4af 11be e0a8 84be 9950 42bf
00000050: 14e9 1cbe 389b b7be dac4 fabe e87b cb3e
00000060: c998 1bbf 2d05 21bf e239 4bbf 3d7a c8be
00000070: ab1a 163f 2949 833f ade9 833e 6c98 2dbe

conv3.weight f4 [64, 32, 3, 3]
0.054835413 -0.108815216 -0.09608658 0.17019619 0.080697976 0.0308803 0.17943852 0.18440676
0.16825096 -0.1687424 -0.094033144 -0.10630981 0.16335972 -0.09489306 0.18799216 0.17342241
0.18968257 0.18823844 -0.16332717 0.16892435 -0.18873823 0.11033633 0.03079908 -0.1797695
-0.17819734 -0.16133234 -0.18620259 -0.10711481 -0.18070723 -0.06565465 -0.040851403 -0.030461483
-0.0010241377 -0.046063125 0.16303512 -0.09784513 0.0670104 0.114376836 -0.03710737 -0.03548265
0.02303577 0.029901125 -0.1311851 -0.03706935 0.15383916 0.1515019 0.09908377 0.17649028
-0.15713021 0.16481736 -0.054273155 -0.023527933 0.18164916 0.1724054 -0.17913708 -0.03152583
0.16643801 -0.1611829 -0.18700658 -0.18373299 0.16949588 -0.031668954 -0.15407532 0.18698417
-0.08947675 -0.17432651 0.18122366 0.10562736 -0.017058665 0.18958749 0.07917387 -0.17737278
0.19062495 0.18920462 0.1896216 0.17243922 0.17752562 0.17867696 0.030024137 0.11262331
-0.17629744 0.16703722 0.17940478 -0.16450177 -0.03610085 -0.03200883 -0.124195 -0.16359581
-0.095670864 -0.0370434 -0.17336074 0.10135596 0.15463266 -0.1782323 -0.05436658 -0.033667192
-0.18463944 -0.15695381 -0.11540517 0.021140212 -0.04003973 -0.1688184 -0.18590297 0.18660912
-0.094725534 0.17769839 0.18219377 -0.0100667225 0.18575792 0.09471491 -0.04308675 0.028123692
0.0068934895 0.095813885 -0.15955305 -0.15942626 -0.046184666 0.1335317 0.098631546 0.0312771
0.16231778 0.096046485 0.18405925 -0.18193996 -0.09921924 -0.03226478 -0.06024803 0.18541186
-0.15923065 -0.10816304 -0.15493011 0.18151514 -0.16263586 0.027808836 -0.04424304 0.18620102
-0.047680512 -0.15078653 0.14150874 0.17476578 0.08536269 0.16888711 0.18339823 0.029632352
-0.09605361 -0.08529141 0.099314176 0.1841401 0.18206915 0.16243325 0.03184727 0.17793672
0.028654398 0.15993825 0.09603242 -0.09234861 0.189212 0.18523435 0.10438015 -0.044816013
0.1383014 0.015218426 -0.034677844 -0.031767998 -0.03253297 -0.124026425 -0.032517526 0.10010523
-0.17946437 0.18146646 0.16956572 0.16574815 -0.031553816 -0.03273954 -0.027363747 0.09261179
0.09925106 0.09654617 0.046668176 0.025194617 -0.03807643 0.1370346 -0.042160742 0.18957947
0.1558711 0.18929233 0.17255394 0.03674418 0.026316997 -0.05836466 0.0963464 0.18641077
0.17344855 0.18819289 0.18837936 0.18764363 0.07752786 0.16220851 0.18252718 -0.050497334
-0.0775284 0.1678395 0.03327876 -0.18623617 0.16666248 0.055893626 -0.18898574 -0.099003255
-0.098975904 -0.03314016 -0.16026153 0.108910866 0.1856775 -0.18536 -0.09824146 -0.16763449
0.09670915 -0.15879954 -0.17573348 -0.04880841 0.03613149 -0.16159178 0.16441236 0.16301233
0.032517746 0.01876313 -0.16174424 0.18877485 0.031984866 0.03696553 -0.033643793 0.09829131
0.190458 -0.15636878 -0.16268954 -0.034266844 -0.027501252 -0.101694055 0.08977328 0.16198322
-0.031754732 0.18401337 0.05578723 0.10445525 0.033659235 0.08717344 -0.1360318 0.08584371
-0.16087765 -0.05413834 -0.10177318 -0.035303313 -0.085773654 0.091313705 -0.18451628 -0.09578104
00000000: 199b 603d 83da debd 0ac9 c4bd e947 2e3e
00000010: fb44 a53d aff8 fc3c bbbe 373e 20d5 3c3e
00000020: fb49 2c3e cfca 2cbe 7394 c0bd f5b8 d9bd
00000030: c547 273e 4b57 c2bd 0481 403e a595 313e
00000040: 263c 423e 94c1 403e 3d3f 27be 81fa 2c3e
00000050: 9844 41be 04f8 e13d 5a4e fc3c 7f15 38be
00000060: 5d79 36be 4e34 25be e4ab 3ebe 025f dbbd
00000070: 510b 39be f275 86bd cd53 27bd 5c8a f9bc
00000080: 5c3c 86ba b0ac 3cbd aef2 263e 0763 c8bd
00000090: c03c 893d 673e ea3d e6fd 17bd 4156 11bd
000000a0: 83b5 bc3c 34f3 f43c 6355 06be 08d6 17bd
000000b0: 0388 1d3e 5023 1b3e 6eec ca3d deb9 343e
000000c0: bee6 20be e2c5 283e 874d 5ebd a7bd c0bc
000000d0: 3d02 3a3e 0b8b 303e b66f 37be 3b21 01bd
000000e0: ba6e 2a3e 210d 25be a77e 3fbe 8024 3cbe
000000f0: 5490 2d3e 4eb7 01bd ecc5 1dbe c778 3f3e
00000100: 963f b7bd a682 32be b292 393e 2853 d83d
00000110: 9dbe 8bbc 3923 423e e925 a23d 36a1 35be
00000120: 3033 433e dbbe 413e 2a2c 423e e893 303e
00000130: 47c9 353e 18f7 363e 2ef5 f53c 0da7 e63d
00000140: 5187 34be ce0b 2b3e e3b5 373e 2773 28be
00000150: 7cde 13bd b11b 03bd f359 febd a985 27be
00000160: 16ef c3bd d2ba 17bd 7a85 31be b793 cf3d
00000170: 0658 1e3e 8782 36be 7eaf 5ebd 9ce6 09bd
00000180: 1f12 3dbe 80b8 20be 8c59 ecbd 3d2e ad3c
00000190: b300 24bd bbde 2cbe 595d 3ebe 7616 3f3e
000001a0: 76ff c1bd 91f6 353e 0191 3a3e e5ee 24bc
000001b0: 5337 3e3e e4f9 c13d bb7b 30bd a863 e63c
000001c0: c8e2 e13b 123a c43d e061 23be a340 23be
000001d0: 222c 3dbd 89bc 083e 56ff c93d 6b1c 003d
000001e0: a236 263e 05b4 c43d 077a 3c3e 784e 3abe
000001f0: 7533 cbbd 1328 04bd a3c6 76bd 9bdc 3d3e
00000200: 5c0d 23be 9584 ddbd 00a6 1ebe 1bdf 393e
00000210: 048a 26be 5bcf e33c 3138 35bd 7bab 3e3e
00000220: a44c 43bd c967 1abe abe7 103e cdf5 323e
00000230: a2d2 ae3d bef0 2c3e bfcc 3b3e 8cbf f23c
00000240: c1b7 c4bd 43ad aebd 3b65 cb3d 398f 3c3e
00000250: 5670 3a3e e754 263e 4872 023d 0b35 363e
00000260: a1bc ea3c dac6 233e a5ac c43d 4521 bdbd
00000270: cac0 413e 13ae 3d3e 43c5 d53d ff90 37bd
00000280: e29e 0d3e b456 793c 5b0a 0ebd 291f 02bd
00000290: 4b41 05bd 9101 febd 1931 05bd f903 cd3d
000002a0: 82c5 37be 58d2 393e a3a2 2d3e e2b9 293e
000002b0: 933e 01bd e519 06bd f029 e0bc 40ab bd3d
000002c0: 2444 cb3d 00ba c53d 2127 3f3d f164 ce3c
000002d0: 08f6 1bbd cc52 0c3e beb0 2cbd 1f21 423e
000002e0: ac9c 1f3e d9d5 413e fbb1 303e 1181 163d
000002f0: be96 d73c c80f 6fbd 4351 c53d 77e2 3e3e
00000300: 7f9c 313e a3b5 403e 85e6 403e a725 403e
00000310: edc6 9e3d fd19 263e 68e8 3a3e 4bd6 4ebd
00000320: 36c7 9ebd 1ede 2b3e 4f4f 083d b2b4 3ebe
00000330: 92a9 2a3e b7f0 643d 7a85 41be 38c2 cabd
00000340: e1b3 cabd fabd 07bd 991b 24be a90c df3d
00000350: 3e22 3e3e 03cf 3dbe d232 c9bd 60a8 2bbe
00000360: 720f c63d 599c 22be 7af3 33be 54eb 47bd
00000370: 9dfe 133d 5178 25be b75b 283e b4ec 263e
00000380: 5431 053d 23b5 993c 48a0 25be 324e 413e
00000390: 9002 033d 2b69 173d 13ce 09bd f44c c93d
000003a0: 6c07 433e 231f 20be 1698 26be 645b 0cbd
000003b0: 4e4a e1bc f944 d0bd 0edb b73d eede 253e
000003c0: 4011 02bd 006e 3c3e 2781 643d a2ec d53d
000003d0: 44de 093d fd87 b23d ec4b 0bbe d4ce af3d
000003e0: 1cbd 24be 2ac0 5dbd 756e d0bd 359a 10bd
000003f0: 19aa afbd ae02 bb3d d6f1 3cbe da28 c4bd

conv3.bias f4 [64]
-0.47348648 -0.14726132 0.17871843 -0.47797838 0.068779275 -0.23860508 -0.29200965 -0.41980007
-0.123145595 -0.34724382 0.14630662 -0.8356665 -0.24247889 -0.3835097 -0.057051446 0.07017991
0.11801181 -0.2038742 -0.44134519 0.2668066 -0.42744875 0.28930283 -0.92398465 0.8895777
-0.64917886 -0.18330333 -0.22564816 0.40252346 0.45213136 -0.3286181 -0.17058907 0.5464153
-0.24988599 0.7225631 -0.82615244 -0.6824579 0.46867773 0.093066074 0.17115583 -0.46611628
-0.6808132 0.5023491 -0.57500106 -0.14718698 0.48147324 -0.4981282 -0.36735207 -0.15918136
-1.0226038 -0.09373378 -0.28832236 -0.92810255 -0.018039662 0.35964623 -0.92860276 0.011434607
0.010321325 -0.038851634 -0.051688064 0.7416088 -0.70662695 -0.261257 -0.55878067 -1.0880722
00000000: d26c f2be accb 16be f701 373e 95b9 f4be
00000010: 26dc 8c3d e454 74be 4a82 95be 09f0 d6be
00000020: c233 fcbd f1c9 b1be 67d1 153e 3dee 55bf
00000030: 634c 78be 625b c4be c7ae 69bd 7cba 8f3d
00000040: 2db0 f13d 66c4 50be fff7 e1be e09a 883e
00000050: 90da dabe 801f 943e 428a 6cbf 5dbb 633f
00000060: 9630 26bf deb3 3bbe 5010 67be 8e17 ce3e
00000070: c37d e73e a240 a8be e7ae 2ebe e0e1 0b3f
00000080: 1de2 7fbe e5f9 383f ba7e 53bf 90b5 2ebf
00000090: 87f6 ef3e 6d99 be3d 7943 2f3e cba6 eebe
000000a0: c649 2ebf f399 003f 4533 13bf 2fb8 16be
000000b0: a983 f63e a90a ffbe 9215 bcbe 7000 23be
000000c0: aee4 82bf 7ff7 bfbd fd9e 93be 2198 6dbf
000000d0: eac7 93bc 8d23 b83e e9b8 6dbf 3858 3b3c
000000e0: c61a 293c e422 1fbd ddb6 53bd 13da 3d3f
000000f0: 81e5 34bf 7ac3 85be 400c 0fbf f345 8bbf

fc1.weight f4 [120, 1024]
0.12577827 0.10996446 0.0551267 0.12171388 0.066172466 -0.103219405 0.12714499 0.02015599
0.05121648 -0.06366992 -0.005025578 -0.12090709 -0.039955355 0.12688892 -0.11290947 -0.12569667
-0.096012436 -0.061715327 -0.024573188 0.06594739 0.022185855 0.006692104 0.1330772 -0.11122186
0.115549915 -0.04261023 0.064920746 0.0770771 0.01939431 -0.108927004 -0.11684948 0.048870154
-0.003923455 0.10982283 0.022646671 0.06815673 -0.0026861695 -0.06548175 -0.11034541 0.006338426
0.054373056 0.11526086 -0.08830557 0.07149891 -0.123228006 -0.1332012 -0.032255553 0.022596575
0.08277084 -0.07219537 -0.030490696 0.022765351 0.022248197 -0.08855314 -0.01368623 -0.016017608
-0.10009297 -0.029344972 0.09001241 -0.06399314 0.02164086 -0.012737385 -0.02046163 0.08649335
-0.011770994 0.011213536 -0.09049754 0.022506412 -0.117178515 -0.092286065 -0.021997763 -0.06493632
-0.105532795 -0.1155891 -0.094642684 0.047065664 0.11147524 -0.12192824 0.12965463 0.1309686
-0.08463947 -0.12149813 -0.119764365 -0.06777616 -0.12770848 -0.12841038 -0.10653052 -0.013362658
-0.11509304 -0.10895708 -0.11899543 -0.11479339 0.0013502871 0.11244958 -0.12792157 0.108795024
-0.13131356 -0.06226853 0.026686667 -0.059836783 0.094423905 0.03899958 -0.0070380545 -0.05233433
-0.016179852 0.016518837 0.050426662 -0.016577398 -0.12783836 -0.12821363 0.09285334 0.11751172
-0.1288653 -0.11969588 0.081257835 -0.039050825 -0.010385302 -0.00128169 0.13250676 -0.011975839
-0.09677162 -0.032632653 0.07573606 -0.06494419 0.0062570656 0.02448853 -0.029177295 0.010921608
-0.106946364 -0.106240585 -0.026404642 0.048897505 0.10847546 0.06913637 -0.01699628 -0.100698
0.12157154 0.07304899 0.065902375 -0.108594835 0.12357758 0.12467288 -0.028534451 -0.06509961
0.09912839 -0.105710365 -0.12005497 0.01572612 0.033213627 -0.023634814 -0.06410438 -0.025548303
0.12613297 -0.022602752 -0.027007114 -0.12952861 0.10291967 -0.110390015 -0.06847742 0.011146142
0.06371409 0.04868529 -0.021973647 0.087940834 -0.048321046 -0.11229232 -0.03516582 0.02272022
-0.12099319 -0.0668266 -0.024869224 0.094432294 -0.10784499 -0.1126325 0.060093485 0.03235195
-0.12939277 -0.112272345 -0.05718281 0.10726806 -0.122305825 0.10002909 -0.12930402 -0.11363779
-0.01696807 -0.020070937 -0.09854752 0.014245559 -0.1338491 0.020100826 -0.031509504 0.11959004
-0.037730876 0.12195764 -0.027003646 0.021696292 0.047645424 0.013141842 -0.067120485 0.09136201
-0.08696775 0.02277148 -0.05229221 -0.06928066 -0.1112851 -0.06297247 -0.076801404 0.08095224
-0.071701705 0.0790483 0.01635594 0.10825416 0.021365115 0.076773696 -0.058679294 0.06659522
-0.0046158764 -0.09004542 0.12014563 0.12200258 -0.01931214 -0.11251669 -0.06647463 0.016405737
-0.12542872 0.114481166 -0.10748796 -0.13224009 -0.07051498 0.13103315 -0.002470381 -0.005554594
-0.027726127 0.04539452 0.05188059 -0.08274439 0.115879595 0.07128126 0.046801917 0.11305999
-0.11310872 -0.114038244 -0.078808494 -0.11108929 -0.10946644 -0.044589482 0.07127816 -0.022395002
-0.12144867 -0.11596912 0.021298474 -0.10216479 0.13255009 0.07289356 0.13061348 0.007655823
00000000: 05cc 003e 0c35 e13d 89cc 613d 2045 f93d
00000010: 6e85 873d b264 d3bd 4c32 023e 2d1e a53c
00000020: 5fc8 513d 6065 82bd 9bad a4bb 239e f7bd
00000030: 3aa8 23bd 2bef 013e 153d e7bd a1b6 00be
00000040: 2ba2 c4bd 36c9 7cbd b64d c9bc 6d0f 873d
00000050: 1cbf b53c 7049 db3b 6445 083e 49c8 e3bd
00000060: 6fa5 ec3d 1188 2ebd 2bf5 843d 99da 9d3d
00000070: d1e0 9e3c 1f15 dfbd c84e efbd 122c 483d
00000080: 5390 80bb cbea e03d 8385 b93c c195 8b3d
00000090: 720a 30bb 4c1b 86bd c6fc e1bd 92b2 cf3b
000000a0: 48b6 5e3d e30d ec3d 8dd9 b4bd 056e 923d
000000b0: f75e fcbd e565 08be 661e 04bd 741c b93c
000000c0: c283 a93d 2bdb 93bd a0c7 f9bc 677e ba3c
000000d0: da41 b63c 595b b5bd 363c 60bc 5c37 83bc
000000e0: 8bfd ccbd de64 f0bc 6d58 b83d d60e 83bd
000000f0: 2c48 b13c 77b0 50bc 269f a7bc 6d23 b13d
00000100: 21db 40bc fbb8 373c c656 b9bd 5e5f b83c
00000110: 4afb efbd 7a00 bdbd a734 b4bc 55fd 84bd
00000120: 9421 d8bd fab9 ecbd 06d4 c1bd edc7 403d
00000130: 214d e43d 83b5 f9bd 2fc4 043e a21c 063e
00000140: 7557 adbd 03d4 f8bd 0547 f5bd 3ace 8abd
00000150: 03c6 02be 037e 03be ac2c dabd 0def 5abc
00000160: e6b5 ebbd e424 dfbd e0b3 f3bd cc18 ebbd
00000170: 1efc b03a f74b e63d dffd 02be edcf de3d
00000180: 1077 06be 490d 7fbd ff9d da3c 6a17 75bd
00000190: 5261 c13d 06be 1f3d 7b9f e6bb 865c 56bd
000001a0: 9c8b 84bc 8352 873c 308c 4e3d 53cd 87bc
000001b0: 0fe8 02be 6f4a 03be e429 be3d fca9 f03d
000001c0: 44f5 03be 1d23 f5bd 826a a63d c2f3 1fbd
000001d0: 1d27 2abc 61fe a7ba daaf 073e 4f36 44bc
000001e0: 3330 c6bd d1a9 05bd 821b 9b3d 7601 85bd
000001f0: 1208 cd3b 2b9c c83c 3905 efbc 8bf0 323c
00000200: b206 dbbd aa94 d9bd 8c4e d8bc c048 483d
00000210: 6228 de3d 5f97 8d3d c83b 8bbc c13a cebd
00000220: 80fa f83d b59a 953d d3f7 863d f866 debd
00000230: 3e16 fd3d 7f54 ff3d 15c1 e9bc f252 85bd
00000240: d303 cb3d ad7e d8bd 61df f5bd 10d4 803c
00000250: 030b 083d cc9d c1bc 2849 83bd ad4a d1bc
00000260: 0029 013e 6829 b9bc 063e ddbc 26a3 04be
00000270: 8cc7 d23d 2914 e2bd e43d 8cbd 4f9e 363c
00000280: 887c 823d 3a6a 473d 1402 b4bc 531a b43d
00000290: 4aec 45bd 84f9 e5bd 090a 10bd c11f ba3c
000002a0: 47cb f7bd 62dc 88bd 8bba cbbc b865 c13d
000002b0: d6dd dcbd deab e6bd 9624 763d 7a83 043d
000002c0: 8a7f 04be 0bef e5bd 8638 6abd 5baf db3d
000002d0: 7a7b fabd 0ddc cc3d 4668 04be eeba e8bd
000002e0: 9f00 8bbc ce6b a4bc 48d3 c9bd 3566 693c
000002f0: bd0f 09be 7daa a43c 1c10 01bd 9feb f43d
00000300: b18b 1abd edc4 f93d c036 ddbc 6cbc b13c
00000310: d927 433d e150 573c 7776 89bd 011c bb3d
00000320: 261c b2bd 418b ba3c 5b30 56bd 05e3 8dbd
00000330: 71e9 e3bd b6f7 80bd 0e4a 9dbd 4aca a53d
00000340: 58d8 92bd 13e4 a13d e4fc 853c 5bb4 dd3d
00000350: e505 af3c 873b 9d3d b359 70bd 1363 883d
00000360: c740 97bb bc69 b8bd e90e f63d 7ddc f93d
00000370: 7e34 9ebc 266f e6bd da23 88bd 5365 863c
00000380: 6370 00be 1a75 ea3d a622 dcbd f269 07be
00000390: 286a 90bd 8e2d 063e 1ee6 21bb 5003 b6bb
000003a0: e721 e3bc 9bef 393d be80 543d e475 a9bd
000003b0: 4852 ed3d e9fb 913d 5eb3 3f3d ff8b e73d
000003c0: 8ba5 e7bd e28c e9bd 5966 a1bd c882 e3bd
000003d0: f12f e0bd 76a3 36bd 49fa 913d b975 b7bc
000003e0: 15ba f8bd 3881 edbd 237a ae3c c63b d1bd
000003f0: 36bb 073e 3849 953d 8abf 053e b3dd fa3b

fc1.bias f4 [120]
0.12697545 -0.006426186 -0.1906778 0.038620256 -0.21057004 0.063899465 -0.08796079 -0.18435897
-0.043777637 0.20351844 0.0503374 0.10811124 0.012161226 -0.21832907 0.15452039 0.005869007
0.24339274 0.015159088 -0.18229233 0.013346896 -0.15054083 0.02951187 -0.13866793 0.29981843
0.04761813 0.12253755 -0.18238564 -0.013045498 -0.13006811 -0.1682476 0.11875461 -0.036833845
0.23492634 -0.014761226 0.061552793 -0.13105248 -0.13616256 -0.17288783 -0.07681523 -0.106054686
-0.19130538 -0.06839824 -0.07608235 -0.21652855 0.1191073 0.14036588 -0.12591632 8.498184e-05
-0.00070055365 -0.0043447446 0.016033795 -0.14308217 -0.10693631 -0.039697144 -0.04815688 -0.15622574
-0.087178566 0.0049966937 -0.05343419 0.030443346 -0.17315692 -0.083969735 -0.048185136 -0.032751404
-0.101259224 0.13247213 0.021352066 -0.26054186 -0.005884842 -0.0965171 -0.03348153 0.107927345
0.08587874 -0.03475129 0.0049717645 -0.030105159 -0.11994023 -0.20745753 -0.09977468 0.15748544
-0.15324764 -0.033695117 -0.11913808 -0.2484019 0.05423729 -0.16926302 -0.03880554 -0.11743335
-0.24687356 0.04351066 0.0016762856 -0.029335862 0.021074397 -0.18557496 -0.0435296 -0.05259282
0.19064486 -0.2719296 -0.13144417 -0.02350995 -0.046046153 0.005015342 0.41342 -0.2179106
0.09187257 -0.038175397 0.01625734 -0.1959271 0.10959644 -0.12833263 -0.098885745 0.079457134
0.081381805 0.010403946 0.0882325 -0.14331792 -0.026029069 0.11363738 0.16434674 0.08630886
00000000: da05 023e c192 d2bb 0b41 43be 4630 1e3d
00000010: ac9f 57be b9dd 823d c924 b4bd 99c8 3cbe
00000020: 2e50 33bd 2367 503e 972e 4e3d 6d69 dd3d
00000030: e13f 473c a891 5fbe 983a 1e3e cd50 c03b
00000040: f23b 793e d35d 783c d7aa 3abe f0ac 5a3c
00000050: 6027 1abe e1c2 f13c f7fe 0dbe cd81 993e
00000060: 3a0b 433d f8f4 fa3d 4dc3 3abe c9bc 55bc
00000070: 9330 05be 1949 2cbe 9e35 f33d 16df 16bd
00000080: 8890 703e 12d9 71bc c81e 7c3d 9f32 06be
00000090: 336e 0bbe 8209 31be 4e51 9dbd 3333 d9bd
000000a0: 8fe5 43be 6014 8cbd 10d1 9bbd a9b9 5dbe
000000b0: 87ee f33d 13bc 0f3e 35f0 00be 4738 b238
000000c0: 5ca5 37ba 5c5e 8ebb 4e59 833c 2284 12be
000000d0: 6d01 dbbd 7999 22bd 2640 45bd a4f9 1fbe
000000e0: ad8a b2bd 4ebb a33b cfdd 5abd 5364 f93c
000000f0: 0c50 31be 53f8 abbd c75d 45bd 5626 06bd
00000100: ff60 cfbd c6a6 073e 87ea ae3c be65 85be
00000110: a2d5 c0bb c2aa c5bd ee23 09bd 0309 dd3d
00000120: 31e1 af3d 5e57 0ebd 2fea a23b 189f f6bc
00000130: 39a3 f5bd bf6f 54be ab56 ccbd dd43 213e
00000140: f3ec 1cbe e403 0abd aafe f3bd 115d 7ebe
00000150: ec27 5e3d 4953 2dbe 8ff2 1ebd e580 f0bd
00000160: 6ccc 7cbe 3c38 323d d0b6 db3a c351 f0bc
00000170: 37a4 ac3c 5d07 3ebe 184c 32bd 926b 57bd
00000180: 6838 433e 5b3a 8bbe 4d99 06be f097 c0bc
00000190: e49a 3cbd bd57 a43b c9ab d33e f523 5fbe
000001a0: b027 bc3d ce5d 1cbd 1d2e 853c 1da1 48be
000001b0: 1974 e03d a169 03be 9c84 cabd 6cba a23d
000001c0: 81ab a63d 5075 2a3c 3eb3 b43d efc1 12be
000001d0: ea3a d5bc b7ba e83d 834a 283e b3c2 b03d

fc2.weight f4 [84, 120]
-0.06382898 -0.0672247 0.010250601 -0.0127101615 -0.18210606 -0.029113067 0.18251607 -0.17746057
0.08159547 0.12887387 -0.12896799 0.046930276 -0.16454387 0.032023158 -0.0957619 -0.0858475
0.10644308 -0.03147925 0.16534998 0.1269534 0.07946706 0.099715 0.050849605 0.1390634
-0.027762895 0.089575954 -0.09237134 0.1792425 0.0145753315 -0.08145481 -0.17365646 -0.12775494
-0.16644539 0.08255995 0.0028674987 0.00781525 -0.06278669 -0.16618983 0.04367508 -0.039224777
-0.07347845 -0.09524565 -0.036154922 -0.14372069 0.079821646 -0.089451164 -0.09746458 0.18018177
-0.103284165 -0.10053328 0.040319957 -0.10422853 0.00913226 -0.06845452 -0.09466764 0.16495514
-0.0035704996 -0.08812668 -0.16222498 0.17939419 0.16333164 0.090621464 -0.12630796 -0.038425952
-0.12525018 -0.031768918 0.044921868 -0.09359307 0.13069639 0.11787343 0.18029875 -0.03197147
0.024041193 0.017241484 0.09449673 -0.086711034 0.0020120963 -0.16450064 0.10430684 -0.04480316
-0.10953906 -0.16025865 -0.08995147 0.023224767 0.12437378 0.11887852 -0.1032849 0.021304317
-0.03909223 0.18335143 -0.1787185 -0.0359193 0.0018360515 0.05263047 0.021967817 0.032526568
-0.02107576 0.059536777 -0.1820197 -0.09091651 -0.03190504 -0.053310562 -0.0115220165 -0.17509861
-0.03037697 -0.060912855 -0.0848281 0.15115257 0.036888048 0.092149936 0.14842422 0.019927664
0.16563933 0.013433762 0.09170921 -0.18012227 0.031179529 0.17855376 0.0894285 0.1283038
-0.018068207 0.09282864 0.028221775 0.15674202 -0.1806958 -0.02835976 0.032681946 -0.01997332
0.085772574 0.17525262 0.096582495 -0.1749968 -0.17961732 -0.1578157 0.1807696 0.183105
0.18090872 -0.027057625 0.024975406 -0.042883486 -0.17862298 0.029571183 -0.0199204 0.0904041
0.09994731 -0.16545603 0.033535134 0.109836034 -0.18368976 -0.18282452 0.093393095 0.15081616
-0.006373362 0.030462317 0.18095116 -0.16971348 0.01951644 -0.17248958 -0.17618163 -0.0236202
-0.18329908 0.17838162 -0.15493006 -0.03168442 0.07815903 0.1268358 -0.0022627192 0.1491376
0.13929419 0.15640256 -0.13827315 -0.16492423 0.013282196 0.08498172 -0.10155617 0.10885792
0.18303926 -0.1700462 -0.076737285 0.1457499 -0.17056544 0.018059565 -0.16943102 0.03194401
0.11150424 0.17997617 -0.0914267 -0.10816789 0.17925611 -0.079102136 -0.14314827 0.08966873
-0.1823562 -0.1781459 -0.14204955 -0.18066016 0.037988495 0.01075536 0.0121832965 0.17724317
-0.05931037 0.18249469 -0.18212171 -0.16966505 0.17984302 -0.096729465 -0.16656992 0.110029556
0.15007223 -0.1832343 -0.026282394 0.047080558 0.010550099 -0.18323088 0.018968955 -0.14913423
0.09177605 -0.014152132 -0.031050585 -0.16812596 0.18080164 0.022217335 -0.18052487 -0.16020407
-0.17260042 -0.029451996 -0.17789617 -0.097541586 0.04339265 -0.16697516 -0.1829534 0.1827202
0.042543396 0.18047598 -0.17864533 -0.01494476 -0.098852664 0.16759442 -0.18166953 -0.09213733
-0.15852818 0.17624502 -0.03142283 0.1828836 -0.06719135 -0.09062053 -0.010882533 -0.048994612
-0.17404684 0.037551586 0.17080474 0.082414284 0.1690575 -0.17180052 0.019219562 -0.17544079
00000000: c5b8 82bd 1aad 89bd 23f2 273c 483e 50bc
00000010: 037a 3abe 877e eebc 7ee5 3a3e 39b8 35be
00000020: 871b a73d 83f7 033e 2f10 04be f639 403d
00000030: 307e 28be b72a 033d d11e c4bd d0d0 afbd
00000040: d4fe d93d 63f0 00bd 8151 293e 1200 023e
00000050: a0bf a23d 6137 cc3d ad47 503d a366 0e3e
00000060: 036f e3bc 9973 b73d 2f2d bdbd 598b 373e
00000070: 5fcd 6e3c c8d1 a6bd 00d3 31be 31d2 02be
00000080: a970 2abe 3115 a93d a5ec 3b3b 890b 003c
00000090: 4f96 80bd ab2d 2abe a4e4 323d 29aa 20bd
000000a0: df7b 96bd 2710 c3bd 2f17 14bd 842b 13be
000000b0: 8879 a33d 2c32 b7bd 829b c7bd 9281 383e
000000c0: a686 d3bd 64e4 cdbd 8a26 253d c475 d5bd
000000d0: 7a9f 153c e231 8cbd 1ce1 c1bd 00ea 283e
000000e0: 0bff 69bb c37b b4bd 4e1e 26be 1cb3 373e
000000f0: 6940 273e bf97 b93d e056 01be 8864 1dbd
00000100: 9541 00be 2020 02bd feff 373d b9ad bfbd
00000110: 46d5 053e a067 f13d 3ca0 383e 84f4 02bd
00000120: 09f2 c43c 033e 8d3c 8087 c13d 8e95 b1bd
00000130: 60dd 033b db72 28be d39e d53d 8583 37bd
00000140: 0456 e0bd d81a 24be 7a38 b8bd de41 be3c
00000150: aeb7 fe3d 9576 f33d 0987 d3bd 6486 ae3c
00000160: 2d1f 20bd 7ac0 3b3e fc01 37be 1e20 13bd
00000170: aaa7 f03a 0c93 573d daf5 b33c 943a 053d
00000180: 12a7 acbc d6dc 733d 5f63 3abe 6f32 babd
00000190: dcae 02bd 2d5c 5abd d7c6 3cbc 0d4d 33be
000001a0: 20d9 f8bc c27f 79bd 5bba adbd bdc7 1a3e
000001b0: ec17 173d 1bb9 bc3d 85fc 173e 573f a33c
000001c0: 5b9d 293e 4819 5c3c 0ad2 bb3d f971 38be
000001d0: 366c ff3c ccd6 363e 4a26 b73d 1262 033e
000001e0: c703 94bc f11c be3d 5a31 e73c fb80 203e
000001f0: 5208 39be ba52 e8bc 81dd 053d 179f a3bc
00000200: 88a9 af3d 6c75 333e 0bcd c53d 5c32 33be
00000210: 9aed 37be 709a 21be ab1b 393e e17f 3b3e
00000220: 2340 393e f4a7 ddbc 3999 cc3c 98a6 2fbd
00000230: f1e8 36be 443f f23c 1b30 a3bc c925 b93d
00000240: 2db1 cc3d 4e6d 29be 235c 093d b7f1 e03d
00000250: 2b19 3cbe 5a36 3bbe e144 bf3d 8d6f 1a3e
00000260: a3d7 d0bb 1c8c f93c 434b 393e 5fc9 2dbe
00000270: f1e0 9f3c 1ca1 30be f568 34be 267f c1bc
00000280: c1b2 3bbe aca9 363e fca5 1ebe 86c7 01bd
00000290: d711 a03d 3ee1 013e 214a 14bb 87b7 183e
000002a0: 23a3 0e3e fe27 203e 7a97 0dbe e6e1 28be
000002b0: 919d 593c e50a ae3d aefc cfbd e7f0 de3d
000002c0: a56e 3b3e 9720 2ebe 7028 9dbd 763f 153e
000002d0: b5a8 2ebe a7f1 933c 537f 2dbe b9d7 023d
000002e0: 565c e43d ac4b 383e ec3d bbbd 2087 ddbd
000002f0: ea8e 373e 4d00 a2bd 7695 12be 3da4 b73d
00000300: 95bb 3abe e16b 36be 7075 11be fafe 38be
00000310: d399 1b3d 4037 303c 739c 473c 3c7f 353e
00000320: 6eef 72bd e3df 3a3e 1d7e 3abe adbc 2dbe
00000330: c528 383e 191a c6bd 4e91 2abe 2d57 e13d
00000340: 89ac 193e c6a1 3bbe 2d4e d7bc 8bd7 403d
00000350: 53da 2c3c e0a0 3bbe c864 9b3c a5b6 18be
00000360: 15f5 bb3d 58de 67bc cc5d febc 3629 2cbe
00000370: 1124 393e 2101 b63c 83db 38be 890c 24be
00000380: 2abe 30be 5045 f1bc 6a2a 36be e2c3 c7bd
00000390: 7ebc 313d 89fb 2abe 2358 3bbe 011b 3b3e
000003a0: fc41 2e3d b2ce 383e cdee 36be deda 74bc
000003b0: 4473 cabd df9d 2b3e 9407 3abe 7fb2 bcbd
000003c0: 3655 22be 9379 343e 3ab5 00bd d745 3b3e
000003d0: 9e9b 89bd 4297 b9bd a74c 32bc 93ae 48bd
000003e0: 5639 32be b1cf 193d 70e7 2e3e d2c8 a83d
000003f0: 691d 2d3e 7aec 2fbe 5872 9d3c c0a6 33be

fc2.bias f4 [84]
0.04154419 0.2031666 -0.032036327 -0.01256968 -0.027799154 0.30949998 -0.13560791 0.06757478
0.10401563 0.054281455 0.025979 0.10858038 0.1313388 0.24252132 -0.031211106 -0.08593857
-0.13272792 0.014320216 0.12763563 0.044920456 0.080391556 -0.06665751 0.09738393 -0.022057852
0.13310027 -0.062356044 0.17865828 -0.07175298 -0.030305807 0.061114483 -0.04949318 0.033051267
-0.13406697 0.048734576 -0.09120641 0.14014892 0.06453078 -0.11620098 -0.04387127 0.0012319754
0.1112179 0.010334265 -0.00058692205 -0.029548002 -0.17921421 0.095069274 -0.025815178 -0.024261994
-0.12453293 0.1922515 -0.12450221 -0.054914013 0.046207543 -0.050935537 0.09925192 -0.0829679
-0.018330285 0.04636571 -0.0014935457 -0.014161156 0.08784322 -0.071192496 0.086574964 0.065771535
0.123906456 -0.056877114 -0.00939221 0.13982108 -0.046752322 0.3215119 0.12955941 0.11365071
0.14018911 -0.14482804 0.05208687 0.31321332 -0.0644164 -0.055467024 0.16019577 0.11435024
0.08371281 -0.0087958425 -0.027266348 0.05177515
00000000: 3e2a 2a3d e80a 503e 8638 03bd 0ff1 4dbc
00000010: 0dbb e3bc c876 9e3e cddc 0abe a564 8a3d
00000020: 2606 d53d 3b56 5e3d e9d1 d43c 645f de3d
00000030: ae7d 063e 8257 783e 6fae ffbc 9000 b0bd
00000040: d4e9 07be 579f 6a3c eab2 023e 83fe 373d
00000050: 54a4 a43d bc83 88bd 3a71 c73d abb2 b4bc
00000060: 704b 083e 0d69 7fbd 32f2 363e 3af3 92bd
00000070: e243 f8bc 2e53 7a3d 5cb9 4abd c460 073d
00000080: da48 09be e89d 473d 6dca babd 3383 0f3e
00000090: b728 843d c8fa edbd 5cb2 33bd 3c7a a13a
000000a0: 36c6 e33d 0d51 293c acdb 19ba a70e f2bc
000000b0: ee83 37be aeb3 c23d 5a7a d3bc 17c1 c6bc
000000c0: 1f0b ffbd 94dd 443e 04fb febd 84ed 60bd
000000d0: 1f44 3d3d c8a1 50bd 9744 cb3d 13eb a9bd
000000e0: 6529 96bc f9e9 3d3d 14c3 c3ba 3104 68bc
000000f0: 25e7 b33d 5fcd 91bd 374e b13d 3ab3 863d
00000100: abc2 fd3d faf7 68bd c9e1 19bc 422d 0f3e
00000110: 5d7f 3fbd 359d a43e 39ab 043e b4c1 e83d
00000120: bc8d 0f3e cd4d 14be 0b59 553d 7f5d a03e
00000130: bfec 83bd 6431 63bd 5c0a 243e 7530 ea3d
00000140: 9f71 ab3d 701c 10bc ad5d dfbc 2e12 543d

fc3.weight f4 [10, 84]
-0.25101957 -0.39534223 -0.2484994 -0.08176949 0.03796625 0.064318426 0.33131975 -0.39323887
-0.19798659 -0.39638335 0.38888627 0.20092577 -0.33128235 0.19965656 -0.21684861 -0.3339661
-0.0005854739 -0.065517105 -0.3481473 0.06135725 0.3915574 -0.31361905 0.19807613 -0.34658742
-0.3426718 -0.39488736 -0.39678267 0.39235297 0.06557556 -0.23625919 0.3818032 -0.019780517
-0.08560577 0.39207986 -0.15122086 -0.39052647 -0.06768637 -0.1491664 0.37341493 0.36943525
0.32824504 -0.1817561 0.06499798 -0.38490665 0.3912218 0.3905528 0.05616914 -0.39503202
-0.3957597 0.003457598 -0.065168165 0.0017351385 -0.09763964 -0.007745313 0.39179325 -0.1753436
-0.14209794 0.32931533 -0.36462396 0.3949853 0.3922105 0.38659045 -0.17677952 0.3327161
-0.39442673 0.0637916 -0.19741201 -0.38581163 -0.39155206 -0.15331158 0.19665381 0.20014547
-0.3811946 0.20412204 0.39677933 0.19658682 -0.10604486 0.07054792 0.21890761 0.20008922
0.10599148 0.037590858 0.24914503 -0.39330027 0.054255426 -0.20550376 -0.086210586 -0.07569031
-0.05083425 -0.39648345 -0.39340857 -0.39473948 -0.39712325 0.39478937 0.3313333 -0.036518786
0.33148727 -0.35465494 -0.0025360861 0.33132377 -0.06023117 0.07831555 -0.2150708 0.39602047
0.39324927 0.3327367 -0.3971213 0.06810779 -0.18996477 0.33173376 -0.3966995 0.30918464
-0.039766483 -0.17482768 0.049987163 0.24798062 -0.020489803 0.22155823 0.39331502 0.32930335
-0.07287124 0.3957254 0.33306754 -0.39721677 -0.39604187 -0.10403931 -0.096319936 0.3333097
-0.25457534 0.35716012 0.094030395 -0.39588696 0.19946255 -0.3367231 0.050375704 -0.064439215
-0.027265944 -0.14916813 0.33044612 0.16197817 -0.19863878 -0.33534756 0.32613364 -0.21484718
-0.21929047 0.39650452 0.0020190752 0.12619549 0.19670102 -0.35700586 0.008348359 -0.3939244
0.39535502 -0.3972547 -0.33399945 -0.394551 -0.39731574 0.3938169 -0.0073980535 -0.3967112
0.39209902 -0.20099905 -0.3968736 -0.20378992 0.39451775 -0.0814157 -0.21289124 -0.37908155
0.39432442 -0.3941135 -0.3949745 0.3350374 0.28941575 0.374727 -0.066254534 0.3954984
0.3323336 -0.28779852 0.04371879 0.39079425 0.384181 0.39172375 0.065782905 -0.3312288
0.16493827 -0.23819141 0.18187436 -0.1511829 -0.39478177 -0.39639157 -0.21635294 0.37443218
-0.16307141 -0.09152958 0.39453205 0.06678499 0.071778305 -0.3334027 0.39109138 -0.27917066
0.06652779 -0.3726709 0.20163101 -0.22253558 -0.33177194 0.19954643 0.08931561 0.38143778
-0.20360628 -0.06706187 0.22670661 -0.19689949 -0.24454468 0.26923612 -0.21139696 -0.32057115
-0.19903412 0.39391097 -0.19765486 0.09665798 -0.34846082 0.018958908 0.39519066 0.067335084
0.27945557 0.03233487 -0.33963647 -0.21528056 0.2014907 0.0007559818 0.3969189 -0.32986915
-0.39878118 -0.1591944 0.018415548 0.2000791 0.22270317 0.20097905 0.39758658 -0.3380574
-0.39437947 0.3322631 -0.3964924 -0.3965954 -0.3881667 0.13232757 0.36052355 0.06627019
-0.20552091 -0.15976033 -0.35242543 0.38822415 -0.3351362 -0.31190372 0.3955245 -0.33117798
00000000: a385 80be 4c6a cabe a076 7ebe c376 a7bd
00000010: 8082 1b3d 61b9 833d bea2 a93e 9b56 c9be
00000020: ffbc 4abe c2f2 cabe 1a1c c73e 7cbf 4d3e
00000030: d79d a9be c572 4c3e 900d 5ebe 9bfd aabe
00000040: 7d7a 19ba d52d 86bd 5d40 b2be bd51 7b3d
00000050: 367a c83e ad92 a0be 78d4 4a3e e873 b1be
00000060: ae72 afbe ad2e cabe 1927 cbbe 7de2 c83e
00000070: 7b4c 863d eeed 71be b67b c33e c00a a2bc
00000080: 1452 afbd b1be c83e a4d9 1abe 16f3 c7be
00000090: 279f 8abd 14bf 18be 3e30 bf3e 9e26 bd3e
000000a0: bc0f a83e 451e 3abe a91d 853d 7c12 c5be
000000b0: 394e c83e 89f6 c73e 9d11 663d a341 cabe
000000c0: 04a1 cabe de98 623b e376 85bd 966d e33a
000000d0: 4bf7 c7bd 65cc fdbb 2099 c83e 468d 33be
000000e0: 1f82 11be 059c a83e feaf babe 833b ca3e
000000f0: d1cf c83e 2fef c53e b105 35be c459 aa3e
00000100: 4df2 c9be 2ca5 823d 6026 4abe 1a89 c5be
00000110: 8379 c8be b6fd 1cbe 9e5f 493e eff2 4c3e
00000120: f02b c3be 5e05 513e a926 cb3e 0e4e 493e
00000130: 0c2e d9bd 6e7b 903d 5129 603e 30e4 4c3e
00000140: 1012 d93d dff8 193d e01f 7f3e a75e c9be
00000150: f03a 5e3d 946f 52be 2d8f b0bd 8503 9bbd
00000160: 9337 50bd e1ff cabe d96c c9be 4b1b cabe
00000170: bd53 cbbe d521 ca3e 85a4 a93e b994 15bd
00000180: b3b8 a93e 5595 b5be 7734 26bb 45a3 a93e
00000190: f6b4 76bd e763 a03d 853b 5cbe 32c3 ca3e
000001a0: f857 c93e 775c aa3e 7c53 cbbe 197c 8b3d
000001b0: 2086 42be 02d9 a93e 321c cbbe 734d 9e3e
000001c0: 2ee2 22bd 0706 33be 57bf 4c3d a2ee 7d3e
000001d0: 3bda a7bc 29e0 623e 9660 c93e 739a a83e
000001e0: 843d 95bd 859c ca3e d487 aa3e ff5f cbbe
000001f0: 00c6 cabe 9012 d5bd 6343 c5bd 92a7 aa3e
00000200: b357 82be b1dd b63e 0293 c03d b2b1 cabe
00000210: e93f 4c3e f866 acbe c156 4e3d b5f8 83bd
00000220: d45c dfbc 88bf 18be 3c30 a93e 9bdd 253e
00000230: f767 4bbe adb2 abbe fdfa a63e e600 5cbe
00000240: ae8d 60be a402 cb3e 7652 043b 6439 013e
00000250: fe6b 493e 79c9 b6be 8ec7 083c 75b0 c9be
00000260: f96b ca3e f864 cbbe fa01 abbe 9702 cabe
00000270: f86c cbbe 5ea2 c93e 5f6b f2bb bb1d cbbe
00000280: 34c1 c83e b2d2 4dbe 0433 cbbe 4eae 50be
00000290: 3bfe c93e 46bd a6bd 2900 5abe fa16 c2be
000002a0: e4e4 c93e 3fc9 c9be 193a cabe 068a ab3e
000002b0: 4d2e 943e 38dc bf3e 75b0 87bd c47e ca3e
000002c0: a127 aa3e 545a 93be 7912 333d 2f16 c83e
000002d0: 5fb3 c43e 0490 c83e 30b9 863d d296 a9be
000002e0: 94e5 283e 73e8 73be 463d 3a3e b1cf 1abe
000002f0: d620 cabe d6f3 cabe a08b 5dbe 93b5 bf3e
00000300: 31fc 26be dc73 bbbd 1b00 ca3e 92c6 883d
00000310: 8100 933d c2b3 aabe 213d c83e 75ef 8ebe
00000320: b93f 883d b8ce bebe 5c78 4e3e 5ee0 63be
00000330: 03de a9be e655 4c3e 1aeb b63d d04b c33e
00000340: 2a7e 50be bc57 89bd c725 683e 05a0 49be
00000350: ec69 7abe 51d9 893e 7278 58be e721 a4be
00000360: 9acf 4bbe b3ae c93e 0966 4abe 9ef4 c53d
00000370: 7569 b2be b64f 9b3c 6e56 ca3e fae6 893d
00000380: cd14 8f3e 9271 043d d5e4 adbe 8272 5cbe
00000390: 9453 4e3e 142d 463a f438 cb3e 9ce4 a8be
000003a0: 0c2d ccbe db03 23be 34dc 963c 89e1 4c3e
000003b0: 4d0c 643e 74cd 4d3e 7890 cb3e dc15 adbe
000003c0: 1bec c9be 641e aa3e 0d01 cbbe 8d0e cbbe
000003d0: c9bd c6be e180 073e 8b96 b83e aab8 873d
000003e0: 1374 52be 3698 23be 1b71 b4be 51c5 c63e
000003f0: f996 abbe d8b1 9fbe 3082 ca3e 2990 a9be
