machinelearning/finn/lplenet_test.pth (torch, 279341 bytes, 9 tensors)

conv1.weight f4 [6, 3, 5, 5]
000000 99 ae c9 bd 52 66 dd 3d 33 ae 07 bb 14 89 b2 3c
       -0.09847755 0.10810532 -0.0020703196 0.02179388
000010 a9 40 64 bd 22 f1 a6 bd 95 f4 1a 3d ec 92 c7 3d
       -0.055725727 -0.08151461 0.037830908 0.0974482
000020 16 a8 75 bd bb 6a e3 3d 36 6a 9a bd d6 de 77 3d
       -0.059974752 0.111043416 -0.075397894 0.060515247
000030 58 ac 6f 3d 38 bc 86 bd a1 51 9d 3d 72 4c 3d 3b
       0.05851397 -0.06578869 0.07681585 0.0028884676
000040 3f 87 d3 3d 79 41 a8 3d b6 38 2c 3d 82 94 60 bd
       0.103285305 0.08215613 0.04204627 -0.054829128
000050 9a c3 81 bd b1 e6 00 bd 42 8f 4d bd b2 6f 80 bd
       -0.06336136 -0.031470004 -0.05018545 -0.06271304
000060 52 ff c0 bd ce b9 17 3d b3 5f f4 bc 5a fd 96 bd
       -0.094236985 0.03704243 -0.02983079 -0.07372542
000070 91 e4 15 3d f5 58 db 3d d0 13 d1 bd 22 06 88 bd
       0.03659493 0.107103266 -0.10208857 -0.06641795
000080 b9 64 d9 3d a3 04 b6 3d 33 69 5c 3d eb cc 93 bc
       0.106149144 0.08887603 0.053811263 -0.018042048
000090 64 1e 95 bd 8d aa 7a bd 31 d6 18 3d 21 fe 64 3c
       -0.07281187 -0.061197806 0.037313644 0.013976605
0000a0 5c 99 68 3d 15 91 9b 3d a0 66 d5 3d 99 c0 d4 bc
       0.05678688 0.075960316 0.10419965 -0.025970744
0000b0 5d e6 0d 3d 18 2e a3 bc 97 94 9c bc 6a 22 5a bd
       0.03464352 -0.01991944 -0.019113822 -0.053255476
0000c0 6a d4 58 3c ee 8c f5 3b 71 b6 17 3c 9c 5b be bd
       0.013234237 0.007493607 0.009259806 -0.09294817
0000d0 9d c2 c9 3d bd bd bd bd a5 55 91 bd c1 29 84 3d
       0.09851573 -0.09264705 -0.070964135 0.064532764
0000e0 5c 88 9e 3d cc bd c1 3d 6c 73 db 3d 01 39 13 bc
       0.07740852 0.09460029 0.10715374 -0.008985759
0000f0 d3 eb 9b bd 55 7f b0 3d e5 e9 cd bd c6 08 59 3d
       -0.07613339 0.08618037 -0.100543775 0.052986883
000100 12 94 5a 3d 6e d4 8c bd f4 90 c2 3d 3c 66 a6 bd
       0.053363867 -0.06876455 0.09500304 -0.081249684
000110 51 fb dc bd 25 16 b4 3c 8b 8c 22 3d 0c 7a a2 3c
       -0.10790122 0.021983216 0.039684813 0.019833587
000120 b9 b9 d0 bd 5f b7 84 3d 33 4e dd 3d f4 9f 75 3d
       -0.10191674 0.06480288 0.10805931 0.059966996
000130 76 bd c6 bd ff 2c 9f 3d cd d4 36 3d e3 e4 de bd
       -0.097041056 0.07772254 0.044636536 -0.108835004
000140 b1 76 86 3c 9c 19 9c bd 13 a7 86 3d d9 51 5a bd
       0.016414018 -0.07622072 0.06574836 -0.053300712
000150 88 3c a7 3d 5d 12 dd bc 3f 95 bb bd f0 08 9b bc
       0.08165842 -0.026986295 -0.09159326 -0.01892516
000160 92 e0 9f bd ce e1 a4 3b b0 69 e4 3d 49 9b 48 bd
       -0.07806505 0.005031801 0.11152971 -0.048976216
000170 77 05 39 3d ff 04 c7 bd 00 90 90 bc cb 28 84 bd
       0.045171227 -0.0971775 -0.01764679 -0.06453093
000180 30 0b 8a 3d a4 c9 34 bd ef 35 e8 bc 71 0e 2a bd
       0.06740415 -0.044137612 -0.02834603 -0.04151768
000190 44 58 86 3d 6c 23 b7 bd 5f 51 8d 3d 90 44 c0 bd
       0.06559804 -0.08942303 0.06900286 -0.09388077
0001a0 39 03 97 3d d3 45 e8 bd 55 7f bd 3c 95 45 a5 3d
       0.073736615 -0.11341443 0.023132006 0.08069912
0001b0 62 53 b1 bd 74 e9 ce 3d 53 e5 be 3c 32 eb 8b bd
       -0.08658482 0.101031214 0.02330271 -0.06831969
0001c0 62 26 37 3d db a7 3e bd b8 a7 b3 bd ea fa fe bc
       0.04471434 -0.0465468 -0.08772224 -0.031125505
0001d0 c8 7b cb bd af 8e b7 bd 80 94 d4 bd e7 fd aa ba
       -0.09935719 -0.089627616 -0.103798866 -0.001304564
0001e0 cd 04 ba 3c 77 ce c3 bd 50 c6 b2 3d f5 6b 87 bd
       0.022707367 -0.095608644 0.08729231 -0.06612388
0001f0 1c d7 07 ba 1c 64 bf bd cf 17 bf bd dc ba c3 3d
       -0.0005181895 -0.09345266 -0.09330713 0.09557125
000200 03 70 b3 3d 8e 4e fe bc 15 86 a5 bd 55 a0 a2 3d
       0.08761599 -0.031043317 -0.08082215 0.07940737
000210 58 0b bd bc 5b 57 b8 3d 34 fc bf 3d b5 11 03 3b
       -0.023076698 0.09001037 0.09374276 0.0019999568
000220 4d 4a 3a bd 9c 26 bd 3d 76 97 31 bc a5 6e 49 3d
       -0.045481015 0.0923588 -0.010839334 0.049177784
000230 ae 8f 01 bb f6 f3 2c 3d 1c 6f ad bb 58 09 e9 bd
       -0.0019769478 0.042224847 -0.0052927863 -0.11378735
000240 22 3c 2c 3c f1 c6 de bd 24 fd 73 3c 77 0b 7a 3d
       0.010512384 -0.10877789 0.014891896 0.06104609
000250 03 38 ae bc 4b a9 65 bb 99 d0 c9 3d b0 a6 8f 3d
       -0.021266943 -0.0035043533 0.0985424 0.07014215
000260 5c 89 26 3c 03 2f 75 3c c0 c0 ce bc ef 62 9a bd
       0.010164585 0.014964822 -0.025238395 -0.07538401
000270 5c b6 9f bd c4 c0 ca 3d cb 95 c0 ba 31 79 6c 3d
       -0.07798454 0.099000484 -0.0014693079 0.057732765
000280 b4 85 7c 3d fd c0 9f bd 65 91 7b bd 81 4d b0 3d
       0.061650947 -0.078004815 -0.061417956 0.08608533
000290 e6 4d 0f bd 55 cf a3 3d 18 97 fa bc a1 a3 f6 3c
       -0.0349864 0.0799853 -0.030589625 0.030107321
0002a0 05 88 f0 3b cd cc 67 3b 08 29 c8 3d b5 14 cc bd
       0.0073404335 0.0035369874 0.09773451 -0.09964887
0002b0 bc b7 38 3d 4b fa c6 3c 96 27 47 3d a9 5e 66 bd
       0.045097098 0.02428927 0.048621736 -0.05624262
0002c0 85 32 22 3a 0e 27 5a 3d e0 bc 2d 3d bd 64 93 3d
       0.00061873376 0.0532599 0.042416453 0.07196949
0002d0 06 d8 ab 3c 14 31 78 3a 5e 75 8f bd ad 22 b6 bd
       0.020977031 0.00094677624 -0.07004808 -0.08893333
0002e0 83 e7 ab bd ba 62 96 bc 42 6e b7 bd 5a a3 98 bd
       -0.08393767 -0.018357623 -0.08956577 -0.07453032
0002f0 92 b0 b9 bc a1 0e 35 bd b0 e6 a8 3c f3 b0 4f 3a
       -0.022667203 -0.044203404 0.020617813 0.0007922791
000300 6d 9f ff bc 90 1f a7 3d be 13 ec bd 5c ce 03 bc
       -0.03120395 0.08160317 -0.11527203 -0.008044805
000310 53 c3 93 3c 40 06 a9 3c 74 29 0e 3d 67 66 ca bd
       0.018037474 0.020632863 0.0347075 -0.09882813
000320 31 78 e7 3d f2 21 91 3b 35 10 9f bd 0a 5c 0f 3d
       0.113022216 0.0044290954 -0.07766763 0.034999885
000330 aa 22 02 bd cc d9 df 3d 8d eb 97 3d 3e 2b 8c bb
       -0.03177134 0.10930213 0.074179746 -0.004277616
000340 cc c7 44 3c 3e e1 82 bd f5 8a b3 3d ee 7b c3 bd
       0.012010526 -0.06390618 0.08766738 -0.09545122
000350 23 8c bd bd 46 0f 8e bd 44 13 1a bd 69 35 32 bd
       -0.092552446 -0.06936507 -0.03761603 -0.043507967
000360 c4 2f 1c 3d 05 c0 a0 3d 35 c3 1b bd 4d 16 11 3c
       0.03813149 0.07849125 -0.03802796 0.008855415
000370 8b 02 b2 3c c5 8a 1f 3d 41 29 51 bd 74 23 a1 bd
       0.021729728 0.0389507 -0.051064733 -0.0786809
000380 9f d1 03 bd d9 ea a0 3c 45 f1 e5 3d 13 44 ef bb
       -0.032182332 0.019643234 0.11227659 -0.0073018163
000390 03 40 da bd e0 67 8b 3d 8a 35 e1 3c 36 43 2f 3d
       -0.106567405 0.06806922 0.02749135 0.042788707
0003a0 f1 be de 3d ab b7 f5 bc ee 82 8d 3d a5 53 8d bc
       0.10876263 -0.029994806 0.069097385 -0.017251799
0003b0 38 0c b2 bc 08 ca 94 3d 5d c4 53 3c 84 3a 83 3d
       -0.021734342 0.07265097 0.012925235 0.06407645
0003c0 e2 21 c9 3d 43 55 be 3c 27 12 df 3d 68 dc c8 bd
       0.09820916 0.023234015 0.10892134 -0.09807664
0003d0 1e b2 14 bc 18 5c 8f bd 3a 21 ea bd d8 f8 b1 bd
       -0.00907567 -0.06999987 -0.11432119 -0.08690041
0003e0 99 ec 78 3c 22 42 8a bd 77 36 03 bc 14 5f a8 bc
       0.015193128 -0.06750895 -0.008008591 -0.02055315
0003f0 9a 6e 08 bc e7 86 c7 3d b6 95 8e bd f2 2a cc 3d
       -0.008327151 0.097425275 -0.06962149 0.09969129

conv1.bias f4 [6]
000000 a1 1f c6 3d 11 8d 81 3d 87 03 46 bd 36 1f e2 3d
       0.096740015 0.063257344 -0.048343208 0.11041109
000010 32 56 d9 3d 9d 3f e8 3d
       0.106121436 0.11340258

conv2.weight f4 [16, 6, 5, 5]
000000 8c 45 8b 3a 02 0a 70 bd 38 00 64 bc 2b 73 8f bd
       0.0010625585 -0.058603294 -0.013916068 -0.070043884
000010 94 e5 a6 bd d8 e2 66 ba 60 6e 86 bd cc 93 41 bd
       -0.08149257 -0.0008807606 -0.06564021 -0.04726009
000020 f6 2d a3 3c 47 d3 a0 3d f6 cc 09 3d 53 82 98 3d
       0.019919377 0.07852798 0.03364273 0.07446732
000030 f9 0f 7a bd 20 64 4e 3a a7 0f 52 3a 3b 9e 5b bd
       -0.06105039 0.0007873196 0.00080131966 -0.053617697
000040 3c 5d 10 3d 45 ec 5f 3d 8d 9d 93 bd 6c 28 88 bd
       0.035245165 0.054668684 -0.07207785 -0.06648335
000050 17 6a 5f 3d 4c b1 3d 3d 8e 18 06 3c 1e 83 8b bd
       0.054544535 0.04631166 0.008184565 -0.06812118
000060 fe 75 1b 3c bc e5 21 3d 77 d9 ff ba f5 8d c2 bc
       0.009488581 0.039525732 -0.0019519766 -0.023749331
000070 81 47 7e bd f3 35 25 bd 59 d6 10 bd 7d 6d 2a 3d
       -0.06207991 -0.040334653 -0.035360668 0.041608322
000080 b1 7e 18 bd 9d 80 b6 3c 07 82 b8 bc 7c ec 8e 3d
       -0.037230197 0.022278124 -0.02252294 0.069786996
000090 88 ff ae 3c 03 c0 42 3c 2e ae df bc 1c d2 97 bd
       0.021362081 0.0118865995 -0.027304735 -0.07413122
0000a0 1e 69 c0 3c a1 00 96 bd e9 d9 9e 3d 35 18 41 bd
       0.023487624 -0.07324339 0.07756407 -0.047142226
0000b0 16 c3 a1 3d b3 24 4a 3d 3e 63 2f 3d 65 35 a5 bd
       0.07898538 0.049351405 0.042819254 -0.08066825
0000c0 b0 a4 25 3d eb 73 b3 3c 81 17 2d bd 57 14 1d 3d
       0.04044026 0.02190586 -0.042258743 0.038349476
0000d0 8d b5 b1 3c 02 57 8f bc 66 ab 2a 3c 2b 98 73 3d
       0.021693015 -0.017497543 0.010416841 0.05947129
0000e0 f6 60 a6 bd 36 9c 55 bd 56 13 81 bd a2 0c 9b bd
       -0.081239626 -0.052150927 -0.06302516 -0.07570769
0000f0 3b 43 e9 3c 49 96 05 bd e4 6e 75 bd 91 00 18 3d
       0.02847444 -0.032614026 -0.059920207 0.037109915
000100 61 e8 60 3d 1a 58 56 bd 47 d5 26 3d 30 31 9d 3c
       0.054909114 -0.052330114 0.04073074 0.019188493
000110 83 52 9b bd 9d 80 5b 3d 23 80 a5 3d f3 38 ca 3c
       -0.07584097 0.053589452 0.08081081 0.024685359
000120 8d e9 7a bb be 92 57 bc a9 72 92 bd 8d 10 0a bd
       -0.003828618 -0.013157545 -0.07150776 -0.03370719
000130 42 dc 62 bc 91 7a 5c bc 4f 8a a5 bd be 7b 53 3d
       -0.013846459 -0.0134569565 -0.08083021 0.05163168
000140 d1 49 02 3d 45 f6 15 3d 5e 24 49 bd 73 04 2d bd
       0.031808678 0.036611814 -0.049106948 -0.04224057
000150 ba 1f 89 3d 9b 4a 95 3d bb 79 67 3c 8f 0c 59 bd
       0.066955045 0.072896205 0.014128144 -0.052990492
000160 65 50 96 bb e9 84 49 3d 96 79 95 3d 34 85 a5 3d
       -0.0045872205 0.04919902 0.07298581 0.08082047
000170 d3 79 9a bd df 88 a4 bd 43 33 66 3d 08 27 8d bd
       -0.075427674 -0.080339186 0.05620123 -0.0689221
000180 e0 21 29 bd 57 c7 41 bb af 6f 2b bd 6c 18 a0 bd
       -0.04129207 -0.0029568279 -0.041854557 -0.07817158
000190 ab 2a 0c bd 52 1c 8b 3d ab 6b b1 3c 16 b7 9c 3d
       -0.03422038 0.06792511 0.021657785 0.07652108
0001a0 38 05 cc bc fb a4 4e bd 09 81 d2 3c fd 22 99 bb
       -0.024904832 -0.050450306 0.025696294 -0.0046733604
0001b0 1e a1 35 bd d2 b1 a1 3c ad 7f 6e 3d e0 4d 9f 3d
       -0.044343106 0.019738112 0.05822723 0.07778525
0001c0 9e 27 22 bd 06 c4 ad bc 57 60 5b bd ef dd a2 bd
       -0.039588563 -0.021211635 -0.053558674 -0.07952487
0001d0 fb 25 81 bd 6c 11 4c bd 3b 26 87 3c 10 7a 38 3d
       -0.06306072 -0.049821302 0.016497722 0.045038283
0001e0 fc f0 2c bd 27 8f 59 bd cc 7b 88 3d 70 25 9d 3d
       -0.042222008 -0.053115036 0.066642374 0.07673156
0001f0 70 10 52 bd 78 5e 9a bd a6 de 15 3d d3 7a 47 3c
       -0.051285207 -0.0753755 0.036589287 0.01217528
000200 37 17 50 3d b8 31 3a 3d f3 4e 98 bd 08 e3 a6 bd
       0.05080339 0.04545757 -0.07436933 -0.081487715
000210 15 59 a9 bb 93 24 96 bd ce 9b 91 bd 2e 9f 8b 3c
       -0.00516809 -0.07331195 -0.071097955 0.017043676
000220 14 9e 80 bd 1e 0f 73 3c a8 03 8b 3d 34 6e ef bc
       -0.06280151 0.014835147 0.06787807 -0.029227354
000230 ab 55 5a bd 20 6b 07 bd 28 f5 b9 3c 8f 2e 9b 3c
       -0.053304356 -0.033061147 0.022699907 0.0189431
000240 92 7e 6d bd 05 a8 8e 3d b8 e4 97 3d 97 b9 09 bd
       -0.057982035 0.06965641 0.074166715 -0.033624258
000250 97 a4 c7 bc e8 13 9d bb 86 c8 77 bd 8c 72 97 3c
       -0.024370475 -0.004793633 -0.06049397 0.018487237
000260 1f 2e 87 bb ed 48 93 3c df 5e a2 bd fc c1 b3 3c
       -0.004125371 0.01797911 -0.079282515 0.021943085
000270 f8 26 17 3c 6a 61 3d bd 4e 3d 0c 3d 73 65 93 bd
       0.0092255995 -0.04623548 0.034238152 -0.07197084
000280 bd 4b 79 3d 6e 79 c0 ba fe 90 08 bd 64 6b a2 3d
       0.060863245 -0.0014684626 -0.0333414 0.079306394
000290 c4 72 25 3c 47 ed 80 3c ea 9f 8e 3d 89 4c 9f 3c
       0.010098163 0.015738143 0.06964095 0.019445674
0002a0 b2 c4 c4 bc 11 a3 93 bd bd 0d 6f 3d a4 f8 e2 bc
       -0.024019573 -0.07208837 0.05836271 -0.027706452
0002b0 d9 fa 30 bd 9b 3f 4e 3d 6d 11 89 bd 0d 4c 1c 3c
       -0.043207977 0.050353628 -0.06692777 0.009539616
0002c0 91 10 49 3c c2 0f 2c 3d b6 8b a0 3d 16 00 6e 3c
       0.012272016 0.042007215 0.07839148 0.014526388
0002d0 c5 dd c5 3c 6f a7 73 3b 60 5e 67 3d 50 eb 9e bc
       0.0241536 0.0037178656 0.056486487 -0.019399315
0002e0 c1 4f 33 3c 0b b0 7a 3c 6b 6f 87 3d 5e be 9d bd
       0.010944308 0.015300761 0.06613048 -0.07702325
0002f0 91 71 a6 bc a3 a6 46 bd fa 12 5d bd f1 d6 91 3d
       -0.020317825 -0.04849876 -0.053973176 0.07121075
000300 bc b2 e0 bb fb 61 4a bd 2e 29 9a bd c7 46 0e bc
       -0.0068572443 -0.049409848 -0.07527386 -0.008683867
000310 72 66 1d 3c 04 c6 74 3d d1 4b 77 3d 3c b9 d6 3c
       0.009606944 0.059759155 0.06037504 0.026211374
000320 86 22 97 3d 53 13 a2 bd 61 b4 71 bd db 8f eb bc
       0.07379632 -0.07913842 -0.059009913 -0.02875512
000330 41 3f 11 bd fe f4 53 3d b2 5b f2 bc 45 79 5f bd
       -0.035460714 0.051747315 -0.02958474 -0.05455901
000340 a4 89 69 bd 31 a9 ee bc 5d fe b6 bc 91 81 6c 3c
       -0.05701603 -0.029133411 -0.022338087 0.014435188
000350 9d a5 1c bd 84 40 0d 3d 6e ae 45 3d e9 71 92 bd
       -0.03824388 0.034485355 0.048262052 -0.07150633
000360 93 bc 16 3d 3e 1c 0c bd f6 78 67 3d b4 eb 87 3c
       0.036800932 -0.03420662 0.05651184 0.016591884
000370 34 ec a3 bd dd 80 5b 3c 8c a8 87 3d a2 25 6b 3d
       -0.080040365 0.013397423 0.06623945 0.057408936
000380 87 1b de bb 06 a9 27 3d e0 82 59 bd 64 2b 26 3d
       -0.006778184 0.040932678 -0.053103328 0.040568724
000390 80 e8 80 bd c6 fb 61 bd 51 e8 a2 3b 8f 22 88 bd
       -0.06294346 -0.05517175 0.004971542 -0.066472165
0003a0 4a bf 06 bc 61 00 8f 3d 35 56 78 bd 48 f3 cc bb
       -0.008224318 0.06982494 -0.06062909 -0.0062545873
0003b0 d5 dd 95 3c a9 d5 9d 3d ef 7b ed bc 5a aa 3f 3d
       0.018294254 0.07706768 -0.02898976 0.04679332
0003c0 e7 cc 0d 3d 68 20 ed 3b 1d 68 49 bd 79 81 5c bd
       0.03461924 0.007236529 -0.049171556 -0.053834412
0003d0 3d 16 96 bd 18 79 a0 bd 17 48 8b bd e3 a6 67 3d
       -0.0732846 -0.07835597 -0.068008594 0.05655564
0003e0 51 69 4f bd bd 0f 9c 3d 41 71 18 3d db bb 89 3c
       -0.050637547 0.07620189 0.037217382 0.01681321
0003f0 01 af 44 bd ad 47 2b 3d 78 dd a5 3d 3c 30 8b 3b
       -0.04801846 0.041816402 0.080988824 0.0042476933

conv2.bias f4 [16]
000000 cb 1a 6e bd 6e c3 81 bc 70 d7 a4 3d 9e c0 9d bc
       -0.05813102 -0.015840258 0.08048904 -0.019256886
000010 cc bc ca 3c 4c da 8f bd 92 9a 3d bd bd 9e 8c bd
       0.024748228 -0.07024059 -0.046289988 -0.068662144
000020 4c 2f 31 3d 37 86 8a bd e8 46 09 bd dc 66 aa bc
       0.043257996 -0.06763881 -0.033514887 -0.020801
000030 8e 76 33 bd b6 a3 9a bc 37 bd 97 bc 5e 9b 05 bd
       -0.043814234 -0.018876892 -0.018522842 -0.032618873

fc1.weight f4 [120, 400]
000000 7d 5f ff 3c 5a c9 ee bb cd 9c d2 39 41 95 76 3c
       0.031173462 -0.0072871866 0.00040171147 0.015050233
000010 13 0a 48 bd c0 31 24 bd 9a 25 88 3c 4d 6e 53 3b
       -0.048837733 -0.040086508 0.016619492 0.003226179
000020 23 9f 29 3d 66 58 28 bd a3 32 d7 bc 7d c2 b6 3c
       0.04141153 -0.04109993 -0.026269263 0.022309536
000030 1d 22 39 3d a1 99 4b 3d ee aa 46 ba 2a ae 15 3d
       0.04519855 0.04970706 -0.0007578571 0.03654305
000040 33 2b e3 bb a8 ea 6b 39 2d 25 8c bc 35 27 36 3b
       -0.00693264 0.00022498763 -0.01710757 0.0027794365
000050 53 6e ff 3c fc fd 25 3d 7c ee 31 bd a8 7a 15 bd
       0.031180536 0.04052542 -0.043440327 -0.036493927
000060 a0 88 eb ba b4 bc e0 3c 56 a6 53 3b 4d fb 25 3c
       -0.0017969795 0.02743373 0.003229519 0.010130716
000070 c6 64 28 bd b3 58 f2 3c 36 80 51 bc f6 bb 0e bd
       -0.04111173 0.02958331 -0.0127869155 -0.034847222
000080 23 b8 82 bc e7 6c a5 3c 3e fd c3 3c 81 85 20 bc
       -0.015956944 0.02019353 0.023924466 -0.009797455
000090 c7 74 13 3d 2d 0e 39 bc a0 9b c4 bc c6 7c 75 3c
       0.03600004 -0.011294884 -0.023999989 0.014983362
0000a0 7d be 15 bc 52 58 1b ba 78 93 ab 3c cc ae 3f 3d
       -0.009139654 -0.00059259415 0.020944342 0.04679756
0000b0 80 ea 25 3d 3e 41 0a bc be 90 e9 bb 8f ea 87 3b
       0.04050684 -0.0084384065 -0.0071278503 0.0041478346
0000c0 0a 80 cf bc dc 3a fe bc f6 59 21 bd b6 15 39 bd
       -0.025329608 -0.031033926 -0.039392434 -0.04518672
0000d0 dc a7 c7 bc 94 3a 2d 3d ce bb 3c 3c 77 d0 2f 3d
       -0.024372034 0.042292193 0.0115193855 0.042923417
0000e0 10 06 20 3c 02 56 0e 3d 92 c0 2e bd b1 61 ce 3a
       0.00976707 0.034749992 -0.042664118 0.0015745667
0000f0 94 fa ca b9 90 60 e0 3c f6 95 30 bd 5f 9e 3c 3d
       -0.00038715138 0.027389795 -0.043111764 0.046049472
000100 b7 2a 27 bd 62 a3 e0 bb 4c 2d 4b bd ca a4 25 3d
       -0.04081222 -0.0068554142 -0.049603745 0.04044036
000110 97 d0 d4 bc 41 eb d4 3c 68 28 3a bd af 4f 3a 3d
       -0.02597837 0.025991084 -0.04544869 0.04548615
000120 c9 09 a3 bb 8b a8 13 bd dd 5a 85 3c e1 5c 2e 3c
       -0.0049755317 -0.036049407 0.016278679 0.010642261
000130 77 2d 57 bc 38 e8 53 bc d2 89 9e 3c b9 83 49 3c
       -0.013133398 -0.012933783 0.019352827 0.012299472
000140 e0 41 aa 3c b0 a6 8a bc d8 a5 9a bc e2 a6 45 bd
       0.020783365 -0.016925186 -0.018877909 -0.048254855
000150 fc 80 07 3d 63 a0 28 3b ac da 31 bd 23 31 5e bc
       0.033081993 0.0025730364 -0.043421432 -0.01356152
000160 a3 b4 fc 39 87 eb 8d 3b 04 87 2f 3d 3c 2f 57 3b
       0.0004819977 0.0043310556 0.04285337 0.003283455
000170 74 5d 0e 3c 57 b0 dd 3c ff f5 3a bd 85 23 90 3c
       0.008689273 0.027061624 -0.045644756 0.017595062
000180 74 3b 37 3c ec c7 b0 38 fa 04 28 3d 83 85 2a 3c
       0.011183608 8.429572e-05 0.04102037 0.010407808
000190 5c 58 0a bc 00 2b f3 3c 7d c4 0e 3d 35 3a 42 3d
       -0.008443918 0.02968359 0.034855355 0.04741879
0001a0 a1 ef b8 bc 11 9c 1e 3d 28 67 9c bb c5 5f 23 3d
       -0.022575201 0.038723055 -0.0047730394 0.039886255
0001b0 d3 c5 b8 3c fa 51 2d bd b5 25 45 bd 26 43 33 bc
       0.022555267 -0.042314507 -0.048131663 -0.010941302
0001c0 33 7b 31 3d 4d 4b 86 bc 19 8b 1c 3c 42 58 f9 bc
       0.043330383 -0.016393328 0.009554648 -0.030437592
0001d0 09 22 60 3c 36 d9 f3 3c 82 26 e6 3b 98 04 b5 3c
       0.01367999 0.02976666 0.0070236335 0.022096917
0001e0 0c 99 30 bc 2f 50 a3 bc 97 2b bf 3c 53 c3 0a bc
       -0.010778677 -0.019935695 0.023336215 -0.0084694205
0001f0 6c 19 b4 3c fa 7d e7 3c 6f ee 1d bd 29 7d 1b 3d
       0.021984778 0.028258312 -0.038557466 0.03796116
000200 8a 7f 22 3d 94 a9 20 bd 9a fd 48 3d eb 20 2b bd
       0.039672412 -0.039224222 0.04906998 -0.04177944
000210 c5 93 8f 3b d7 12 a3 bb 6a b3 49 3d be c3 fa bc
       0.004381629 -0.004976611 0.04924337 -0.030610915
000220 b3 d6 c7 3c 6b a6 33 bc 6e b3 f1 bb cb a8 25 3d
       0.024394369 -0.01096497 -0.007376126 0.040444177
000230 12 53 4a 3d 8b 81 1e bc 8a ea 1b bd 19 a8 ef ba
       0.04939563 -0.00967444 -0.03806547 -0.001828435
000240 98 3b 64 bb d5 78 04 3d 4f 56 38 3d b2 cd 8b 3c
       -0.003482556 0.032341797 0.045004185 0.017065857
000250 bb a7 b7 bc 31 ea 3f 3d 84 80 c0 3b f1 95 20 3d
       -0.022418847 0.0468542 0.0058746953 0.039205495
000260 cf e3 7a bc 22 5b f0 3c 6f a6 6a 3c 5d 44 bd bc
       -0.015313103 0.02934033 0.014321907 -0.023103887
000270 6b de 86 bc 78 68 d0 3c 2d 21 67 3c f8 b3 8f 3c
       -0.016463479 0.02544044 0.014107031 0.01754187
000280 ac 19 40 3c 88 e0 4f 3c f1 b3 0e bd ff 58 02 bc
       0.011724871 0.01268781 -0.034839574 -0.007955789
000290 8d 0a 0d bd f2 44 07 bd 40 d1 35 3b 36 d5 4b 3d
       -0.03443389 -0.033024736 0.002774313 0.04976388
0002a0 88 d4 eb bc 0f fe d2 bc 1e 3d 22 bc 10 a4 23 3c
       -0.028787866 -0.02575591 -0.009902267 0.009987846
0002b0 c0 29 1a bd e7 7f 1e 3d f4 2a bd bc 13 ea 2c 3d
       -0.037637472 0.038696196 -0.02309177 0.042215418
0002c0 31 0c 57 bb 6e 32 a6 3c ab 92 01 bc 36 42 49 3d
       -0.0032813663 0.020287719 -0.0079085035 0.04913541
0002d0 41 00 b8 3c dd 8d a0 bb 17 b3 40 3d 2f 49 2a 3a
       0.022461059 -0.004899724 0.047045793 0.00064958906
0002e0 22 cd a0 3b b5 ee 2f bd 2a 0e 49 3c 42 42 fb bc
       0.0049072662 -0.04295226 0.012271443 -0.030671243
0002f0 c3 e2 44 bd 7f 8f ad 3b ab 03 9f 3b 5e e1 56 3c
       -0.04806782 0.005296647 0.004852732 0.013115255
000300 7f 60 ee 3c 1b 6b 9f 3c c1 7a 97 bb bd f4 2b 3d
       0.029098747 0.019460252 -0.0046227877 0.041981447
000310 ac 4d 0b 3d 51 2e 0e 3d 0c 2e 23 bc 5a 38 8a ba
       0.03400962 0.03471214 -0.009959709 -0.0010545359
000320 67 6c 42 3c 7a 04 51 bb 28 79 c4 bc b8 91 27 bd
       0.011866665 -0.0031893537 -0.023983553 -0.040910453
000330 73 e5 f8 3c cc 22 82 3c c4 84 11 3d cc 38 6e bc
       0.030382847 0.015885733 0.035527006 -0.014539909
000340 93 9f d0 3c 8b 63 c7 bc 6c a4 ac bc 37 41 0c bd
       0.025466716 -0.024339458 -0.021074496 -0.03424188
000350 51 12 48 3d ba 3a 80 3c 51 c5 38 3d 36 46 cf b9
       0.048845593 0.015653003 0.04511005 -0.00039534428
000360 12 14 1c bd 96 e9 7c bc 33 bd 3e 3c 23 03 25 3d
       -0.038105078 -0.015436551 0.011641788 0.040286195
000370 5a 6a 3a bd 54 bf 8e 3c 7c c7 1e bd 4d e3 ca 3c
       -0.04551158 0.017425217 -0.038764462 0.024766589
000380 8c 66 d4 bb 64 2d de 3c 05 db b7 bc d7 fa b8 bc
       -0.006481951 0.027121253 -0.022443304 -0.022580547
000390 9f 65 8b 3c 65 f3 ed bc 06 a5 34 3d 65 aa 40 3d
       0.01701623 -0.029046724 0.04410269 0.0470375
0003a0 b3 c1 6e bb 9c e6 fa bc 45 c2 f4 3c 71 1c 75 3c
       -0.0036431372 -0.030627541 0.029877791 0.014960394
0003b0 58 63 21 bc d4 32 15 3d 1f 14 ed 3c 1b f1 bd bc
       -0.009850346 0.036425427 0.028940259 -0.023186257
0003c0 c0 9e 0a 3d cf ea 1a 3d 70 45 d3 bc 4f 88 23 bd
       0.033842802 0.037821587 -0.025789946 -0.039924916
0003d0 60 8a cb bc 9f e7 3e bc eb 15 e4 3c 10 b3 a8 3b
       -0.024846256 -0.011651902 0.027842483 0.005148299
0003e0 44 d1 10 bb 3e 5b ee 3c 70 e2 c0 b9 2f 16 98 39
       -0.0022097388 0.029096242 -0.00036789803 0.00029008227
0003f0 0d b6 27 3c b1 0f f5 3c 3f cd 47 3c 5e 15 8f 3c
       0.010236275 0.029914709 0.012194931 0.017466243

fc1.bias f4 [120]
000000 29 a5 77 bc cd 2d 3d bc 78 b1 57 bc 26 71 bb bc
       -0.015115061 -0.011546564 -0.01316487 -0.022881102
000010 df e8 57 bc 64 46 20 3c c9 fc 71 bc 0e 66 b3 3c
       -0.013178079 0.009782407 -0.014769741 0.02189925
000020 7a f2 06 3d 46 70 31 3c 4f a8 65 3c 9a 6b aa 3c
       0.032946087 0.010829991 0.014017179 0.020803262
000030 2d 86 11 bd c2 cb 36 bd be d6 07 3d 05 73 04 3c
       -0.03552835 -0.044627912 0.03316378 0.008084063
000040 b0 2f c9 3c b8 84 91 bc e4 d5 0a bd a8 87 01 3d
       0.024558872 -0.01776348 -0.03389539 0.031623513
000050 3f ab 25 3d 9f 29 40 bd 85 26 d4 3c 66 84 d1 3c
       0.040446516 -0.046914693 0.025897274 0.025575828
000060 db aa 02 3d 6d 70 c2 bc e0 21 18 bd 78 51 b5 3c
       0.03190122 -0.02373525 -0.03714168 0.022133574
000070 a2 da 2c 3d de 58 32 bd ba 73 fd 3c 44 e7 cc 3c
       0.042200692 -0.04354178 0.030938972 0.02501262
000080 ad a4 f8 3c aa 20 26 3d 2f f3 3d 3d 17 82 3d bd
       0.030351961 0.040558495 0.046374496 -0.04626664
000090 e7 bb 98 3b f4 e9 26 3c 3f 08 6d 3c 22 66 4c 3d
       0.0046610716 0.010187615 0.014467298 0.04990209
0000a0 2f 6f 1f 3d 20 6f 7c bc 7d 88 ae 3c 3e e6 3c bc
       0.038924392 -0.015407354 0.021305317 -0.011529503
0000b0 35 e5 25 3d 00 a2 13 3c 88 38 20 bc 58 8e d6 3c
       0.040501792 0.009010792 -0.009779103 0.026190922
0000c0 7a 5f 7c bc 36 39 cf bc 8b 63 2f 3c 16 03 0a bd
       -0.015403623 -0.025295835 0.010704885 -0.03369435
0000d0 35 ce d7 3c 9a 2b 45 bd d7 67 8e bc 2c 6c 0b bd
       0.026343444 -0.048137285 -0.0173835 -0.034038708
0000e0 b2 79 fc bc b0 ad 4d 3b b1 8f df 3c 7f d6 57 3c
       -0.030819748 0.0031384043 0.027290197 0.013173698
0000f0 e7 b3 2a 3d 62 83 05 bd 4c d6 e9 3b 7c 1b 3f 3c
       0.041675474 -0.032596 0.007136142 0.011664268
000100 93 9f d5 3c 49 57 2a 3d 96 21 93 3b a3 c0 23 3d
       0.026077067 0.041587148 0.0044900877 0.039978635
000110 96 ef 44 3b 14 ef 1e 3d db c1 12 3d d3 b7 36 bc
       0.003005003 0.03880222 0.035829406 -0.011152226
000120 f1 f0 d9 3c 4f 49 33 3d d7 92 28 3d 75 b3 98 bc
       0.026604148 0.043771084 0.041155662 -0.01864026
000130 1c 1a 2a bd dc 5a 58 bc a3 a0 9a bc 38 9a c7 3c
       -0.041528806 -0.013205256 -0.018875426 0.02436553
000140 ce 00 5d 3c 91 ae c9 bb a2 8d ba 3c f0 48 33 3d
       0.013488961 -0.006154843 0.022772614 0.04377073
000150 34 55 44 3c 59 80 08 3d 2a 54 e0 3c af 58 ed bb
       0.011983205 0.033325527 0.027383883 -0.007243238
000160 fe 20 ce 3c 05 7d 3c 3d 54 56 14 bd 91 9a dd bc
       0.025162216 0.046017665 -0.03621514 -0.027051242
000170 18 d6 32 bd e3 5e 1f 3d 82 41 8b 3c 8f e0 a4 37
       -0.043661207 0.03890885 0.01699901 1.9654892e-05
000180 98 87 16 3d 64 06 3b bc ef 2b 25 bc f0 71 2b 3d
       0.036750406 -0.011415098 -0.010081275 0.041856706
000190 37 48 34 bc 82 b7 2e 3c f5 56 28 bd 63 69 6f bc
       -0.0110035455 0.010663869 -0.041098554 -0.0146125285
0001a0 fa a0 12 bd d0 14 46 bd ea 1a e5 3c d4 52 36 3d
       -0.03579805 -0.048359692 0.027966935 0.044512585
0001b0 8c ee 40 3d 57 ff 9f 3b 84 ca 0d 3d 8c 12 2a bd
       0.047102496 0.004882734 0.034616962 -0.041521594
0001c0 40 a2 92 bc 3f 92 49 3d f6 3c 82 3b 12 3c 29 bd
       -0.017899632 0.049211737 0.0039745523 -0.041317053
0001d0 35 2f 92 3b ea ca 1a 3d c0 5e c3 bc 25 1d 16 3c
       0.004461194 0.03779117 -0.023848891 0.009162222

fc2.weight f4 [84, 120]
000000 8b 29 e7 3c ea aa a4 bd 08 c7 1c 3d e3 66 6b 3d
       0.028218051 -0.08040412 0.03827575 0.057471167
000010 26 82 52 bc 2e d2 00 3d f0 ce b2 bd 6f ad 6c bc
       -0.012848413 0.031450443 -0.087308764 -0.014445647
000020 2c 3b 2b bd e2 80 81 3d 4a 64 a9 ba 29 57 df 3c
       -0.041804478 0.063234106 -0.0012923565 0.02726324
000030 91 c9 5c 3d 8b 79 44 3b a1 94 b3 3d 09 c5 5c bd
       0.053903166 0.0029979672 0.08768583 -0.053898845
000040 ad c7 05 bc e7 50 ba bd 22 5d f6 3c 54 41 3f 3c
       -0.008165282 -0.09097462 0.030073706 0.01167329
000050 2a 1a 87 3d b6 f0 b2 bd 0d b4 a9 bd 99 84 a9 bd
       0.06596787 -0.08737318 -0.08286295 -0.08277244
000060 13 64 65 bc 78 2b 6a bd 49 6f 24 3d 9b aa 84 3d
       -0.01400091 -0.05717036 0.040145192 0.06477853
000070 ff b5 d8 3b 8e a4 84 3d 99 b6 e2 3c d6 f1 bc bb
       0.0066134925 0.06476699 0.02767496 -0.005766134
000080 87 8a 97 bd 14 70 cc 3c d4 80 26 bd fc 22 a5 bd
       -0.07399469 0.024955787 -0.040650204 -0.08063313
000090 fd 1b 82 3c 37 46 6d bd 69 65 b4 3c bf 99 b1 bd
       0.015882486 -0.05792829 0.022021012 -0.08671903
0000a0 70 ee a8 3d d3 60 0a bd 54 e0 9d bd ff 37 aa 3d
       0.08248603 -0.033783745 -0.07708803 0.08311462
0000b0 ab 5a 81 bc 84 f4 8b 3d 58 64 6b bd fe 3e 63 3d
       -0.015790304 0.06833747 -0.057468742 0.055479996
0000c0 54 f4 f3 bc 05 6f 19 bd d0 98 cf 3c a2 e9 b9 bd
       -0.02977959 -0.037459392 0.025341421 -0.09077765
0000d0 d6 f3 1a 3d 94 ed a7 3c 4f 81 18 bd 83 dd 58 bd
       0.037830196 0.020499028 -0.037232693 -0.052945625
0000e0 63 33 80 bd 08 75 95 bd 81 65 ae bb f7 11 b5 bc
       -0.06259801 -0.072977126 -0.005322159 -0.022103293
0000f0 d8 1b 14 bd 05 93 31 3d e1 6f a3 bd af 87 45 bd
       -0.036159366 0.0433531 -0.079803236 -0.0482251
000100 9f 61 22 bd 13 77 b8 3d 74 5b 5c bd e5 56 8a bc
       -0.03964388 0.090070866 -0.053798154 -0.016887138
000110 44 a1 32 3d bd b0 a4 3c 37 5f 66 bd 04 bb 20 bc
       0.043610826 0.020103807 -0.056243148 -0.009810213
000120 58 32 57 bc 62 47 25 3c c4 ba e6 3c c5 b1 6c bd
       -0.0131345615 0.01008782 0.028165229 -0.05778672
000130 48 b8 d2 bb 30 de ab 3c ee d0 96 3d 42 19 52 3c
       -0.0064306594 0.02097997 0.07364069 0.012823405
000140 35 ae 85 3c 06 32 b9 3d 29 d1 b0 3c 56 a5 d5 bc
       0.01631842 0.09042744 0.02158411 -0.026079815
000150 9f 2f 82 bd 08 ed aa 3d 56 81 75 39 6d 66 b2 bd
       -0.06356739 0.083459914 0.00023413202 -0.087109424
000160 94 38 26 3d be 11 9b 3c 54 79 86 bd 0f 87 26 bd
       0.0405813 0.018929359 -0.0656611 -0.040656146
000170 c0 2c b3 3d 24 8e f5 bc 45 ef ce bb 70 97 43 bd
       0.0874877 -0.029975004 -0.0063151442 -0.047751844
000180 20 b2 fb bc 0a a5 6d bd 9a 19 56 bd 33 3c a3 bd
       -0.030724585 -0.05801872 -0.05227051 -0.079704665
000190 e4 a2 7a 3d b1 3d b3 bd 6c 91 91 3d a8 ee b7 3d
       0.0611905 -0.08752001 0.07107815 0.08981067
0001a0 a8 5f 5e 3d bc ac 21 bd 21 17 b9 3d 4a 7a a9 3b
       0.054290444 -0.039471373 0.090376146 0.0051720487
0001b0 b7 35 55 3d 08 89 21 bd eb f4 40 3d de e3 8a 3b
       0.05205318 -0.039437324 0.047108572 0.0042385897
0001c0 0d 72 3a bd d0 28 3d bd 0f f3 48 bd db bc 88 bc
       -0.045518924 -0.0461815 -0.049059924 -0.016691616
0001d0 03 46 12 3d 6b 3c 82 bd 9e ab 28 bd 6e 61 78 bd
       0.0357113 -0.0635918 -0.041179292 -0.06063979
0001e0 87 03 76 3d 54 82 47 bd 08 16 05 3c 6e c6 f2 3b
       0.060061958 -0.048708275 0.008122928 0.0074089086
0001f0 79 46 dd bc 56 d8 52 3d c0 a8 88 bd 3e 74 cb 3c
       -0.027011143 0.051475845 -0.066728115 0.024835702
000200 ca c3 53 3c 2c f0 dd bc 8d 58 22 3d ad 13 0c 3d
       0.012925098 -0.027092062 0.03963523 0.03419845
000210 a1 a3 cc 3c 31 57 cb 3c bc 2c 76 3c 06 bd 0e bd
       0.024980368 0.02482185 0.015025314 -0.034848236
000220 80 65 04 3d f6 8e 32 3d f4 26 a9 3d 4a 94 8a 3d
       0.03232336 0.04359337 0.08259383 0.06766565
000230 44 fb 19 3d 7e c7 94 3d 91 0e 8b bd d0 1c c6 3c
       0.03759314 0.072646126 -0.06789888 0.02418366
000240 77 17 1c 3d e4 92 bf bb b2 76 8f bd 14 ef 51 bd
       0.038108315 -0.005846368 -0.07005061 -0.051253393
000250 f4 01 71 bd e2 28 31 3d 46 f6 96 bd 93 71 03 bd
       -0.058839753 0.04325188 -0.07371192 -0.032090735
000260 ae 0b f7 3c 62 bc 84 3d ad 12 54 3d 4d b7 6f bb
       0.030156936 0.06481244 0.051775623 -0.0036577762
000270 6d 01 14 3d 1e 7c 41 3c da eb 07 3d 36 fb fe bb
       0.036134172 0.011809377 0.03318391 -0.0077814115
000280 d4 25 4c bc 14 d3 ee bb 59 9f a7 3d 28 8b 97 3c
       -0.012460191 -0.007288346 0.0818469 0.018498972
000290 16 2b e1 bc cc ba a6 3d 22 ba e6 bb e5 b4 0c bd
       -0.027486365 0.081410974 -0.0070412317 -0.034352202
0002a0 49 a1 a7 bd 65 e2 79 3d 33 c6 81 3d 65 b3 da 39
       -0.081850596 0.061006922 0.063366316 0.0004171386
0002b0 0a d2 b0 3d 0a fc 1c 3d e2 72 d7 bb bb c8 50 3d
       0.08633812 0.0383263 -0.0065749744 0.05097268
0002c0 e3 51 d5 39 3e 87 61 3c fa f1 4e bd 04 ff db bb
       0.00040687536 0.013765154 -0.050523736 -0.00671375
0002d0 0d 91 1d 3d 0e 21 fd ba c6 88 b6 bc f8 14 58 bd
       0.03846841 -0.0019312219 -0.022282016 -0.052754372
0002e0 a3 8f 45 bb c5 d1 9f 3c 7e a8 89 3d 1f f0 68 3c
       -0.0030145429 0.019509206 0.067215905 0.014217406
0002f0 db 64 92 bd 9a 79 84 3c a4 4e 51 bd 2d 4f af bc
       -0.07148143 0.016171265 -0.05110039 -0.021400059
000300 d2 2a c1 3b e6 57 17 bc 44 ce c6 3c 51 21 69 bd
       0.005894997 -0.009237265 0.024268277 -0.05691654
000310 80 ed 7a bc 82 ca 56 3b 53 32 1f bd 0b 90 9b 3d
       -0.0153154135 0.0032774513 -0.038866352 0.075958334
000320 91 96 80 bd 0e 21 b6 3d 46 16 69 bd 50 ad 87 3d
       -0.06278718 0.088930234 -0.056906007 0.066248536
000330 9f ce 60 bd d4 41 f2 bc f1 32 17 3d 65 89 88 bd
       -0.05488455 -0.029572405 0.036913816 -0.06666831
000340 89 e3 99 3d 5d a4 41 3d 2f 50 73 bd a5 0c a6 3d
       0.07514102 0.04727589 -0.05940264 0.081078805
000350 fd 9d 39 bc c0 a2 b4 3d 1a ac 9d bc b9 67 2b bb
       -0.011329171 0.088201046 -0.019247103 -0.0026154353
000360 43 d9 04 3c 99 58 fd 3c 7d 05 94 3d 8a eb 68 3d
       0.00810844 0.030926036 0.07227609 0.056865253
000370 b9 43 1b 3c 00 bf a7 3d 1a f6 b2 bd 84 42 7c bd
       0.009476596 0.08190727 -0.087383464 -0.06158687
000380 5c 2f aa bd 6f ea 9c bd d6 60 3d bd 09 d9 97 3d
       -0.08309814 -0.07661902 -0.046234928 0.07414443
000390 1e 94 98 bd 9a ae 87 bb 69 b6 91 bd ae cd 8b 3d
       -0.07450126 -0.004140687 -0.0711487 0.0682634
0003a0 30 eb 22 3d 6f 71 2d bd 5e 10 74 bd f2 9d 03 bd
       0.039775074 -0.042344507 -0.05958592 -0.03213305
0003b0 07 27 e2 3c 38 eb 87 bc e4 cf 70 3d 1f 84 b9 bd
       0.0276065 -0.016591653 0.05879201 -0.09058403
0003c0 00 73 7e bb 2c c4 81 3c c5 c9 4d bd 92 37 b3 3d
       -0.003882587 0.015840612 -0.05024125 0.087508336
0003d0 a5 3d 92 3d 05 32 92 bd 3f 06 aa 3d aa ef 18 3c
       0.07140664 -0.07138447 0.083019726 0.009334484
0003e0 a9 91 84 3d a8 73 47 bd 54 6b 02 3d 14 d5 5f 3d
       0.06473095 -0.048694283 0.031840637 0.054646567
0003f0 d5 71 a5 bb d9 9e 61 bd b5 4e 52 3c d8 6d d4 3c
       -0.00504897 -0.05508313 0.012836148 0.025931284

fc2.bias f4 [84]
000000 5f c9 db bc a9 c6 9b 3c 77 75 85 bd cb 2e a7 bd
       -0.02682942 0.019015627 -0.06516545 -0.08163222
000010 8a 15 ab 3b 86 6b 96 bd b8 ce ce bb 25 aa f2 bc
       0.0052210735 -0.07344727 -0.006311264 -0.029622147
000020 07 60 25 3d 97 a7 b0 bc 99 50 4f 3d 76 51 f6 3c
       0.040374782 -0.021564288 0.050613973 0.03006814
000030 38 ba 37 bd 63 1b 01 3d 98 68 14 bc 64 36 a2 bd
       -0.044855326 0.03152026 -0.00905814 -0.079205304
000040 20 06 72 3d ef 98 51 bd 26 e8 5c bd a5 ee cf bc
       0.059087873 -0.05117124 -0.05393233 -0.02538235
000050 ef 44 b4 3d f5 4f 32 bc 73 17 b2 3d c6 65 2a bc
       0.088022105 -0.010883321 0.08695879 -0.010400241
000060 90 28 0e 3d e0 94 80 3d 43 f3 d0 bc f9 bb 6a 3d
       0.034706652 0.06278396 -0.025506621 0.05730817
000070 df d3 49 bd 0e 44 01 3d b1 22 a7 3d ec a8 94 3d
       -0.04927432 0.031559043 0.08160914 0.07258782
000080 ad 2a a5 3d c3 7a 35 3d 11 39 03 bd 76 6c a3 bc
       0.080647804 0.044306528 -0.032036845 -0.01994918
000090 87 5a d1 bc 74 bd 9c 3c be 66 25 bd 1a 74 4f bd
       -0.025555862 0.019133307 -0.040381186 -0.050647832
0000a0 b0 9d 50 3b a0 98 fe bc 49 22 5a 3d 0e bd 53 3d
       0.003183227 -0.031078637 0.053255353 0.05169397
0000b0 fb b6 95 bd 84 fc 80 bd 4a 08 a5 3c 8d 9f b2 3d
       -0.073102914 -0.062981635 0.020145554 0.08721838
0000c0 d5 f1 37 bd 98 2f 58 3d 50 31 65 bd 5c 1e b8 3d
       -0.044908363 0.052779764 -0.05595523 0.089901656
0000d0 cd 9c 4f 3d 72 08 5d bb b7 20 5e bd f7 c0 0b 3d
       0.050686646 -0.0033726958 -0.054230418 0.034119572
0000e0 c2 ed 4a 3d fc 2c ef 3c 0f 4c 6a 3c b1 b7 8e bd
       0.04954315 0.029196255 0.01430036 -0.0696863
0000f0 f9 a1 b2 bd c3 36 7d 3c d0 71 b8 bd de 10 d7 bc
       -0.087223 0.015454951 -0.09006083 -0.02625316
000100 a0 f1 5e bd 33 6d aa 3d 61 79 4c 3d 1c 51 43 3d
       -0.05442965 0.08321609 0.049920443 0.047684774
000110 a2 47 b1 bd 81 79 77 3c 58 db 9a 3d 65 03 af bd
       -0.08656241 0.015104652 0.07561368 -0.08545569
000120 e6 70 f6 3b 24 32 91 bc ef c1 18 bc 1d 94 98 bd
       0.0075207828 -0.017724104 -0.009323581 -0.07450125
000130 6f 6b 37 bd af d6 a0 3d 83 13 9c 3d c7 70 71 bb
       -0.04478019 0.07853448 0.07620909 -0.0036840902
000140 45 65 70 3d 26 df 88 3d ab 1d 96 bd ee 40 83 3d
       0.05869033 0.06683187 -0.073298775 0.06408869

fc3.weight f4 [10, 84]
000000 bb da a5 bd 61 cf 82 bd 83 69 3e 3a cd 6f c1 3c
       -0.0809836 -0.06387211 0.0007263647 0.023612881
000010 be b2 99 3d b1 18 92 bb e7 fb 19 3d a8 d3 8c 3d
       0.075047955 -0.00445851 0.03759375 0.06876308
000020 a9 44 d5 bd 0a 01 de 3c e1 19 06 3c d4 27 bd 3d
       -0.104134865 0.027100105 0.008184881 0.09236112
000030 74 fa 30 3d a5 5b 85 3a dc 43 9d bd 7f b8 c0 bd
       0.0432076 0.0010174407 -0.07678959 -0.0941019
000040 1d 21 b8 bd 51 f9 d9 bd 9f d3 c2 bd 9e 15 25 bd
       -0.08990691 -0.106432565 -0.0951302 -0.04030382
000050 63 7c ce 3d e6 3c ba 3c 84 ce 9e 3d da 5e 93 bb
       0.10082319 0.022734117 0.077542335 -0.004497391
000060 19 36 19 3d 65 b2 52 bd 19 63 47 3d ef 61 e8 3c
       0.037405107 -0.05143966 0.04867849 0.02836701
000070 77 46 12 bc 34 53 b0 bd 1a f8 33 bd c3 23 b4 3d
       -0.008927933 -0.0860962 -0.04393778 0.087958835
000080 fb fa 8f bd ef 3f b6 3c 26 7f 9e 3d 4b c4 ca bd
       -0.070302926 0.022247283 0.077390954 -0.09900721
000090 b6 d4 2a 3d 6b c8 aa bd 58 40 a7 bd 2f 56 89 bd
       0.041706763 -0.08339008 -0.081665695 -0.06705891
0000a0 3c 4c 1a bd fd c7 e7 3b 31 41 cf 3d 17 d5 6a 3d
       -0.03767036 0.007073401 0.10119856 0.057332125
0000b0 b0 6b ab 3c ec 61 b8 bd f4 77 8b 3d 54 0b 81 3d
       0.020925373 -0.09003052 0.068099886 0.06300989
0000c0 99 a3 c6 3d c8 42 c6 bb 12 60 f2 3c 76 0e 03 bd
       0.096991725 -0.0060504414 0.029586826 -0.031996213
0000d0 be 2b 53 3b 08 5e ad bd ca 3f 9f 3d 01 bc 4d 3c
       0.0032222117 -0.08465201 0.07775839 0.012557031
0000e0 b3 1a de 3d 07 42 02 bd da 64 9f 3d df 1c 9f bd
       0.10844936 -0.03180125 0.07782908 -0.077691786
0000f0 53 c1 5f b9 75 ab d7 bd b8 fa 50 bb 76 fb 50 3d
       -0.00021338956 -0.1053075 -0.0031887721 0.05102106
000100 2b b1 75 3d e7 3e a6 3d fc 92 af 3d 53 d8 24 3d
       0.059983414 0.081174664 0.08572957 0.040245365
000110 c3 69 7a 3c 0c b4 fa bc aa af 71 3c 0a 9f 21 bd
       0.015284005 -0.030603431 0.014751354 -0.039458312
000120 70 2a 8b 3d bf 04 8b 3c bd 20 da bd 8b 51 2b bd
       0.06795204 0.016970037 -0.106507756 -0.041825812
000130 34 04 32 3d 01 22 94 3c f4 ed de 3d 56 19 2a bd
       0.04346104 0.01808262 0.1088523 -0.04152807
000140 fc 28 1b bd 4d 21 f5 bc da 47 ea bc 87 ea 85 3d
       -0.037880883 -0.029923106 -0.028598715 0.06538873
000150 90 5c df 3c 2a 58 d4 3d b5 82 39 3d 47 96 ce 3d
       0.027265817 0.103683785 0.045290668 0.10087257
000160 80 00 96 3d 13 17 03 bb ac 92 7c 3d 04 ed a6 bd
       0.07324314 -0.0020002767 0.061663315 -0.08150676
000170 e6 90 84 3d 22 cd 9f 3b b1 2a 6c 3d 22 cd 4f 3c
       0.0647295 0.0048767487 0.0576579 0.012683185
000180 9d 37 c1 bd 9c 2d 86 bc 54 ea b1 3d 7b c3 2f bd
       -0.094344355 -0.01637917 0.08687273 -0.042911034
000190 f2 8d c3 bd 4a a7 02 bc 59 c2 38 bc 07 33 7f bd
       -0.09548558 -0.007974455 -0.011276805 -0.062304523
0001a0 6a bb 6c 3d 36 59 5c bd 50 34 a2 3d 8e 9d ae 3d
       0.05779592 -0.053796016 0.07920134 0.08526145
0001b0 18 db 7e bd 5a c1 d0 bd c1 da 89 bc 5c f6 ac bd
       -0.062220663 -0.10193129 -0.016827943 -0.08445427
0001c0 20 84 ff 3b 17 55 c2 3c b1 ba 3c 3d c7 a5 01 3d
       0.007797733 0.023722215 0.04607648 0.03165224
0001d0 1c e6 a5 bd b6 e1 30 3d 97 3a c4 3d 0c f5 b7 bc
       -0.081005305 0.043184005 0.095814876 -0.022455715
0001e0 62 86 af 3c bd bf 0a bc 4c 32 be bd 4c 53 61 bd
       0.021426383 -0.0084685655 -0.09286937 -0.05501108
0001f0 9a be f8 3a 37 74 a0 3c 1e c9 76 3d da 6b d0 3d
       0.0018977702 0.019586666 0.060250394 0.10176821
000200 2a 46 69 3d 6c c2 0f bd 1f 24 09 3d 50 60 46 3d
       0.05695168 -0.035097525 0.033481713 0.048431695
000210 4d d0 f1 bc 56 8f be bd 10 d6 2f bd 07 5e 7a 3c
       -0.02951827 -0.09304683 -0.042928755 0.015281207
000220 c6 46 63 3d 9f 12 d3 3d 02 50 db bd 07 a6 5e bd
       0.055487417 0.10306286 -0.1070862 -0.054357555
000230 8e d5 cb bd f2 79 a0 3d 10 24 dd 3d 72 af d2 bc
       -0.09952842 0.07835759 0.10797894 -0.025718424
000240 51 8c b0 3d d7 59 31 3d 15 30 5a 3d 6d a6 c9 bd
       0.08620513 0.04329857 0.05326851 -0.09846196
000250 4d 7e bf bc a5 94 5b 3d d4 87 1e 3d 1f b0 b6 bb
       -0.023375655 0.053608555 0.038703755 -0.0055751945
000260 dc ac dd bd 35 a9 57 bd ac 19 09 bc e4 20 1a bd
       -0.10823986 -0.052651603 -0.008367937 -0.037629023
000270 0d 32 94 3c 2e ba 99 3c 78 71 80 bd 08 50 74 bc
       0.018090272 0.018765535 -0.062716424 -0.014911659
000280 f3 d0 5c 3d e2 79 1f bd 89 7d d5 3c c8 a9 1d 3c
       0.053910207 -0.038934596 0.026060836 0.009622999
000290 31 f5 67 3b 22 cd 05 3d 9e 29 05 3d 8a ac a5 3d
       0.0035393948 0.032666333 0.032510392 0.0808955
0002a0 96 ea 0f bd 2e a0 5f 3d 44 d9 c8 bc a6 a1 46 bc
       -0.035135828 0.05459612 -0.024517663 -0.012123501
0002b0 30 7e 9a bd 1a df 3f bd 74 5d ae bb 3a ee de 3d
       -0.075435996 -0.046843626 -0.005321199 0.10885282
0002c0 9b 32 ef bc b9 b8 f2 3c 67 76 c3 bd 19 b4 de bd
       -0.029198935 0.029629098 -0.09544068 -0.10874195
0002d0 11 d0 95 3d 51 cf ae 3c 62 13 d3 bd 00 dd 40 3c
       0.07315076 0.02133909 -0.10306431 0.0117714405
0002e0 97 6c 54 3d d1 98 8d 3d 2b ea c2 bc 52 f8 3b bc
       0.05186137 0.06913913 -0.0237933 -0.011472778
0002f0 5e 8c 29 bd ee 27 d7 bd f4 92 c8 bd d1 85 50 3d
       -0.04139363 -0.10505663 -0.09793654 0.050908867
000300 9c 22 2d 3b 96 2d 60 3d 80 86 3f bd a8 f7 98 bc
       0.0026418334 0.054730974 -0.04675913 -0.01867278
000310 3c 42 be 39 e3 1e 24 3d d6 02 f9 3a 5f 29 b7 3d
       0.00036288972 0.04006852 0.0018998038 0.08943438
000320 b0 34 c8 3d 56 00 39 3d 26 79 3c 3d fe a9 cd 3d
       0.09775674 0.045166336 0.046013974 0.10042189
000330 0e e7 84 bd 96 aa 91 bd ac a1 a5 3c 70 ac dc bd
       -0.06489383 -0.07112615 0.020218693 -0.10775077
000340 6c 7e cd 3d ad 0a d5 bd 17 40 ad 3d e8 6f 92 3d
       0.10033879 -0.10402427 0.0845949 0.07150251
000350 99 99 8b 3c 5a 89 b3 bd 65 e2 94 3c c7 39 65 3c
       0.017041015 -0.08766432 0.01817436 0.013990826
000360 d7 03 4f 3d 46 e4 39 3d 27 a9 bc 3d 03 e2 c3 bd
       0.05054077 0.045383714 0.09211951 -0.09564593
000370 94 92 35 3d 10 76 ca 3d 51 af b5 3c d6 26 b0 bd
       0.04432924 0.098858 0.022178324 -0.08601157
000380 46 65 84 3d ed f3 36 3d ae e8 d4 3d f7 53 7b 3c
       0.06464629 0.04466622 0.10395943 0.015339843
000390 9b 88 66 bd 88 d3 16 3d 56 65 71 bd 85 31 57 3d
       -0.05628262 0.036822826 -0.058934532 0.05253746
0003a0 ba c5 51 3d 6d e3 a5 3c 11 e3 98 bd d8 1b 05 bd
       0.051213957 0.020250047 -0.074651845 -0.032497257
0003b0 ad 11 9d bc e3 58 d0 bd 76 92 31 bc 48 b8 c3 3d
       -0.019173468 -0.10173204 -0.010838142 0.09556633
0003c0 41 08 ab 3c b2 66 68 3d 2b b6 cf 3d d6 7c 66 3d
       0.02087796 0.056738563 0.10142168 0.056271397
0003d0 cc 8f ff 3c cf d2 d9 3d d2 77 cf bc 93 a6 c1 ba
       0.031196497 0.10635912 -0.02532569 -0.0014774374
0003e0 1e 3b 1c bd 24 f8 c2 3d 72 f2 0a bd 85 eb a8 3d
       -0.038142316 0.09519985 -0.03392262 0.08248047
0003f0 2d a2 b9 3d f4 6d 43 bd 29 c2 02 3d d2 16 b8 3d
       0.09064136 -0.04771228 0.031923447 0.08988728
