machinelearning/finn/v2_lplenet_test.pth (torch, 667122 bytes, 11 tensors)

conv1.weight f4 [16, 3, 3, 3]
0	0x3ce47ac7	0.027890576
1	0xbd7fa41f	-0.062412377
2	0x3dfb2290	0.12262452
3	0xbe3cdd88	-0.18443882
4	0xbde8652e	-0.113474235
5	0xbd90b42d	-0.07065616
6	0xbe377f93	-0.1791976
7	0xbe433e49	-0.19066729
8	0x3cea3228	0.02858837
9	0xbdc22359	-0.09479398
10	0xbc7e14f5	-0.015507926
11	0xbc994d6f	-0.018713681
12	0xbdf1ea36	-0.1181225
13	0x3bf7e561	0.007565186
14	0xbe3682dc	-0.17823356
15	0x3e1e0bb1	0.15434147
16	0xbda63b37	-0.08116763
17	0x3e0c1e40	0.13683414
18	0xbe34e12a	-0.17664018
19	0x3dccc836	0.09999125
20	0xbd4e19a9	-0.05031744
21	0xbd4916e8	-0.04909411
22	0xbe06fec5	-0.13183124
23	0x3d1e5253	0.03865273
24	0xbe15fb1e	-0.14646575
25	0xbe4229a9	-0.18961205
26	0x3e1b9c81	0.1519642
27	0xbcf0ecb8	-0.029409751
28	0xbe072c02	-0.13200381
29	0x3cdfabde	0.027303632
30	0x3d24aef2	0.040205903
31	0x3dcec065	0.1009529
32	0xbd3a95e4	-0.045553103
33	0x3d2c7fe9	0.042114172
34	0x3e6f000f	0.23339866
35	0x3e2d2d69	0.16911854
36	0x3d9f514c	0.07779178
37	0x3e1f913e	0.15582749
38	0x3e1dff86	0.15429506
39	0x3e16ad10	0.14714456
40	0xbc98e534	-0.01866398
41	0xbd906d72	-0.07052125
42	0xbda6071b	-0.08106824
43	0x3e737690	0.23775697
44	0x3e5b571b	0.21419947
45	0x3da147e5	0.07875041
46	0x3dd6e7cf	0.10493433
47	0xbdd0dce1	-0.10198379
48	0x3d9d6298	0.07684821
49	0xbd0e54b5	-0.03474875
50	0xbd7be6ad	-0.061499286
51	0x3e0e1b54	0.13877612
52	0x3e0a8154	0.13525897
53	0xbd55c4ed	-0.052189756
54	0xbc90c5aa	-0.017672379
55	0x3e0331e7	0.12812005
56	0xbe532f2c	-0.20623463
57	0x3adf5785	0.0017039633
58	0x3e059279	0.13044156
59	0x3e102d1b	0.14079706
60	0xbe6953b3	-0.22785835
61	0xbca4503e	-0.020057794
62	0xbe034da1	-0.12822582
63	0x3cb7b844	0.022426732
64	0xbdbd7661	-0.092510946
65	0x3df12ab3	0.11775722
66	0xbe49f340	-0.19721699
67	0x3d8b7d27	0.0681098
68	0x3cee043c	0.029054753
69	0xbd387727	-0.045035508
70	0xbe30996d	-0.17246027
71	0xbe6ce649	-0.23134722
72	0x3afcce1c	0.00192875
73	0xbd0f1b79	-0.03493831
74	0x3ce5bf31	0.028045269
75	0xbc7806b8	-0.015138321
76	0xbe531c07	-0.2061616
77	0x3e0c55da	0.13704625
78	0xbd9e2f48	-0.07723862
79	0xbbe7fbaa	-0.0070795612
80	0x3e16aee0	0.14715147
81	0x3dfa2859	0.12214727
82	0x3dee2146	0.1162744
83	0xbe215d5c	-0.1575827
84	0xbe6cb961	-0.23117591
85	0x3d9dee22	0.07711436
86	0x3d097405	0.03355791
87	0x3d2aa15b	0.041657787
88	0xbdd37d75	-0.103266634
89	0x3dd23f19	0.10265941
90	0xbd8c698d	-0.0685607
91	0x3d0f0a70	0.034922063
92	0xbcb16c89	-0.021658199
93	0xbe3aa021	-0.18225147
94	0x3e054a55	0.13016637
95	0x3c20d6e8	0.009816863
96	0xbe2d8ed6	-0.16949019
97	0xbdb07485	-0.08615974
98	0xbd63440f	-0.055484828
99	0x3e15c33a	0.14625254
100	0xbde9f079	-0.1142282
101	0xbd8dacc4	-0.06917718
102	0xbe55f43f	-0.20893954
103	0x3d8fb6e9	0.07017309
104	0x3e1974b2	0.14985922
105	0xbdfc5274	-0.12320414
106	0xbe2df687	-0.16988574
107	0x3e13443d	0.143815
108	0xbc2e752e	-0.010648055
109	0x3d8319f6	0.06401436
110	0xbd6c8a51	-0.057749096
111	0x3e078666	0.13234863
112	0xbdb9f06b	-0.09079059
113	0x3ddb13a3	0.10697105
114	0xbcc9413a	-0.024567235
115	0xbdc6360a	-0.09678276
116	0xbd91fe24	-0.071285516
117	0x3e2b31ea	0.1671826
118	0x3df88e84	0.12136558
119	0x3e0c505a	0.13702527
120	0xbc63da5f	-0.013907044
121	0x3dfe7b6c	0.124258846
122	0xbc412dac	-0.011790674
123	0x3e59567f	0.21224402
124	0x3e1c6d60	0.15276098
125	0xbe2fc38c	-0.17164439
126	0xbae8033b	-0.0017701158
127	0xbdf33bb1	-0.118766196
128	0xbc83438c	-0.01602342
129	0x3e3f7b44	0.18699366
130	0xbe2ad749	-0.16683687
131	0xbe0d9ebc	-0.13830084
132	0xbd05fbcc	-0.032710835
133	0x3d96d1ce	0.07364236
134	0xbd41047b	-0.047123414
135	0xbe585159	-0.21124782
136	0xbd3deedf	-0.046370383
137	0xbe825a4b	-0.25459513
138	0xbe7a0608	-0.24416363
139	0x3d9f10e2	0.07766892
140	0x3c88bbb4	0.016691066
141	0xbe249103	-0.16070943
142	0xbe0432dd	-0.12910028
143	0x3d2b0b7b	0.041758996
144	0xbce423fa	-0.027849186
145	0x3da03ee8	0.078244984
146	0x3d5fd492	0.054646082
147	0xbe58f15c	-0.21185821
148	0xbe36a75c	-0.1783728
149	0xbe37e770	-0.1795938
150	0xbdf5d3a7	-0.1200326
151	0xbcdefec9	-0.0272211
152	0x3cfa8e81	0.03058553
153	0x3dc172ff	0.09445762
154	0xbc44128d	-0.0119673135
155	0xbe151ebf	-0.1456251
156	0x3ba73a30	0.005103372
157	0xbe21a1be	-0.15784356
158	0xbe0271c7	-0.12738715
159	0x3dceba21	0.10094095
160	0xbe54545c	-0.20735306
161	0xbd5fd4ad	-0.054646183
162	0x3d08341f	0.03325283
163	0x3da1898f	0.07887565
164	0xbe453408	-0.1925813
165	0xbde8716f	-0.11349761
166	0x3d02aece	0.031904988
167	0xbe0b853b	-0.13625042
168	0xbe6155bb	-0.2200536
169	0x3d160afb	0.036631566
170	0xbe0d0e96	-0.13775095
171	0xbdc23288	-0.09482294
172	0x3d39cf5e	0.045363776
173	0xbd93fddc	-0.07226154
174	0xbe0331d5	-0.12811978
175	0xbbfe07cd	-0.007752395
176	0xbe1bd286	-0.15217027
177	0x3cd98ad6	0.02655546
178	0x3ca2ea5a	0.019887138
179	0x3ddff514	0.10935417
180	0x3d4aa0f8	0.049469918
181	0x3dab50f2	0.083650485
182	0x3dde2976	0.10847752
183	0x3c338621	0.010957272
184	0x3dcca417	0.09992235
185	0xbe3ae8ac	-0.1825282
186	0xbd10faaa	-0.035395302
187	0xbd676772	-0.056495138
188	0x39d51831	0.0004064455
189	0xbe39103c	-0.18072599
190	0x3d7358b2	0.05941076
191	0xbe165700	-0.14681625
192	0xbe180984	-0.1484738
193	0xbd13d05b	-0.036087375
194	0xbdc74702	-0.097303405
195	0xbd1f1ebd	-0.038847674
196	0xbe563780	-0.20919609
197	0xbc0319de	-0.008001773
198	0xbe5c02de	-0.21485469
199	0xbdecf1f6	-0.11569588
200	0xbe2b7ecc	-0.16747588
201	0xbe71ef26	-0.23626384
202	0xbe14c552	-0.14528397
203	0x3c72f768	0.014829494
204	0xbe514b27	-0.20438825
205	0xbdfccdb9	-0.12343926
206	0x3ddfe6d8	0.10932702
207	0xbdce84dc	-0.10083935
208	0xbdcf18f0	-0.10112178
209	0xbdff48c7	-0.12465053
210	0x3cd41ef4	0.025893666
211	0xbd7b7903	-0.061394703
212	0x3d7ed441	0.06221414
213	0xbdf9dfcd	-0.1220089
214	0xbdba1be2	-0.090873495
215	0xbe18f34f	-0.14936565
216	0xbe64da8e	-0.22348997
217	0xbdb21a0c	-0.08696374
218	0x3c955ee6	0.018233728
219	0xbe12d41c	-0.14338726
220	0xbe017a5e	-0.12644336
221	0x3d048c4c	0.03236036
222	0xbc447584	-0.0119909085
223	0xbd6a8d8f	-0.057263907
224	0x3d1bfa73	0.038080644
225	0x3d17ce4a	0.037061967
226	0xbe30d594	-0.17268974
227	0x3d7afbbf	0.06127524
228	0xbe688c8c	-0.22709864
229	0xbd8528f7	-0.06501954
230	0xbdd3aa61	-0.103352316
231	0x3cc0c5d5	0.023531834
232	0x3de2212d	0.11041484
233	0x3c2af5eb	0.010434608
234	0xbd9aab4a	-0.07552202
235	0xbd77ce95	-0.060499746
236	0xbdf7146c	-0.12064442
237	0xbe87a1d6	-0.2649066
238	0xbe390438	-0.18068016
239	0x3d803849	0.062607355
240	0xbe89d4bc	-0.26920116
241	0xbda058b0	-0.07829416
242	0xbe79668d	-0.24355526
243	0x3de62862	0.11238171
244	0xbe16f5c7	-0.14742194
245	0x3e386b00	0.18009567
246	0x3da97571	0.08274353
247	0x3e31db9b	0.17368929
248	0x3d4b6f7a	0.04966686
249	0x3dbe9ab5	0.09306852
250	0x3e40b11c	0.18817562
251	0xbd352fb8	-0.04423496
252	0xbdd8e90b	-0.105913244
253	0xbdfa8e43	-0.122341655
254	0xbbb18e28	-0.0054185577
255	0xbdc51c49	-0.096245356

conv1.bias f4 [16]
0	0x3c133c82	0.008986594
1	0xbc7bb7c4	-0.015363637
2	0xbcc9cbf3	-0.024633383
3	0x3d655150	0.05598575
4	0x3e1739bb	0.14768116
5	0x3c5806b4	0.013185192
6	0xbe2b6827	-0.1673895
7	0xbdb0218b	-0.08600148
8	0xbccd1399	-0.025033759
9	0x3d4b8905	0.04969122
10	0xbe3f29b0	-0.18668246
11	0xbde19c5a	-0.1101615
12	0x3dc81c77	0.09771054
13	0x3cf7a36e	0.030229297
14	0xba931dd1	-0.0011224096
15	0xbe7171ca	-0.23578563

conv2.weight f4 [32, 16, 3, 3]
0	0x3d0968f8	0.03354737
1	0xbd428640	-0.047491312
2	0x3ce3a2a0	0.027787507
3	0xbd1f4fa8	-0.038894325
4	0x3d4b8390	0.049686015
5	0xbd7621cb	-0.06009082
6	0x3d8ab752	0.06773247
7	0x3ca55c50	0.02018562
8	0x3d720493	0.059086394
9	0xbdddaa56	-0.108235046
10	0xbdc09f0d	-0.094053365
11	0xbca4ac31	-0.020101639
12	0xbd1f7468	-0.038929373
13	0xbddb66d8	-0.10712975
14	0x3c06a245	0.008217399
15	0x3d724731	0.059149925
16	0xbdf3c3ab	-0.11902555
17	0xbcf62239	-0.030045616
18	0xbbb93845	-0.00565246
19	0xbdce24a5	-0.10065583
20	0xbdb64ef3	-0.08901777
21	0xbdae3615	-0.08506409
22	0xbd936e7d	-0.07198808
23	0xbd8fee49	-0.07027871
24	0xbd6128ae	-0.054970436
25	0xbd0d9cdb	-0.034573417
26	0xbdde2b38	-0.10848087
27	0xbdb40a1d	-0.087909915
28	0xbdce7f6b	-0.10082897
29	0xbdf5e2fc	-0.120061845
30	0x3c9f3c94	0.019438066
31	0xbe06462d	-0.13112707
32	0xbcbdf14c	-0.023186348
33	0xbe0e2059	-0.13879527
34	0xbdc6f7f6	-0.097152635
35	0x3c61f2f3	0.013790834
36	0xbdfe5ed3	-0.1242043
37	0xbd940e62	-0.07229306
38	0xbe0905cf	-0.13381122
39	0xbdd0552e	-0.10172497
40	0xbdfb4fb4	-0.122710615
41	0xbe130ab9	-0.14359559
42	0xbdb92a58	-0.090412796
43	0xbd6c1612	-0.057638235
44	0xbd6be871	-0.05759472
45	0xbccda287	-0.025101913
46	0x3c377642	0.011197628
47	0xbd2416cd	-0.040060807
48	0x3d104be7	0.035228636
49	0xbe082a2d	-0.13297339
50	0xbd7dbddf	-0.061948653
51	0x3c048745	0.008088891
52	0xbc99b6b9	-0.018763887
53	0xbd438f7c	-0.04774426
54	0x3a18cb13	0.00058286
55	0x3cc2d97f	0.02378535
56	0xbdddebec	-0.10836014
57	0xbbe73f6a	-0.00705712
58	0xbdb47808	-0.08811957
59	0x3b805b29	0.003917117
60	0xbc2b9405	-0.010472302
61	0x3c6ac9aa	0.014330307
62	0xbe05b085	-0.13055618
63	0x3d89b7c1	0.067245014
64	0xbc21c9d0	-0.009874776
65	0x3c2ef06b	0.010677437
66	0x3ccd71ea	0.025078733
67	0x3d7fd366	0.062457465
68	0x3da10289	0.07861812
69	0x3dde764b	0.10862406
70	0x3bdf674a	0.006817733
71	0xbd387748	-0.04503563
72	0x3cb75825	0.022380898
73	0xbde16b30	-0.110067725
74	0xbdbf8120	-0.093508005
75	0xbcc26c03	-0.023733145
76	0x3baddd51	0.005305924
77	0xbdbb70f3	-0.09152403
78	0xbd8b45cb	-0.06800421
79	0xbe0710db	-0.13190024
80	0xbd9812d7	-0.074254684
81	0xbd9a4866	-0.0753334
82	0xbd8f6c24	-0.07003048
83	0xbde849bf	-0.11342191
84	0x3bbb5a15	0.0057175257
85	0xbd86b2ef	-0.065770976
86	0xbe1431f3	-0.14472179
87	0xbc9ed605	-0.019389162
88	0xbd7f0460	-0.06226003
89	0xbc10675b	-0.008813704
90	0x3d75c4a5	0.060001988
91	0xbd6f3497	-0.058399763
92	0xbd92a64c	-0.07160625
93	0xbdad3cff	-0.084589
94	0xbd9d5bf5	-0.07683555
95	0xbd78f72c	-0.060782596
96	0xbba48ec4	-0.005021902
97	0xbe01c2f1	-0.1267202
98	0xbc83bd0c	-0.016081356
99	0xbc4db012	-0.012554185
100	0xbdd3e2f4	-0.10346022
101	0xbdf1db0f	-0.1180936
102	0xbdfe3cb4	-0.12413922
103	0xbdd58a0b	-0.1042672
104	0xbdf21084	-0.11819556
105	0xbd6278d3	-0.05529101
106	0x3cb18771	0.021671029
107	0xbd9cec84	-0.07662299
108	0x3cc89418	0.02448468
109	0xbc7972e3	-0.015225145
110	0x3ade433c	0.0016957293
111	0xbbb46df3	-0.005506271
112	0xbe1877ba	-0.14889422
113	0x3d2b9908	0.04189399
114	0xbdcb2d06	-0.09920697
115	0xbd7b8415	-0.06140526
116	0x3d60d9d4	0.054895237
117	0xbd29c079	-0.04144332
118	0xbd14dca8	-0.036343247
119	0xbc46f1a9	-0.012142577
120	0xbdc45319	-0.09586162
121	0xbbb16342	-0.005413444
122	0x3ca3e322	0.020005766
123	0xbd93d6b4	-0.07218686
124	0x3ca2accf	0.019857792
125	0xbde74616	-0.11292665
126	0xbd925b52	-0.07146324
127	0xbc28e87f	-0.010309338
128	0x3cbfd752	0.023418102
129	0xbd4251e0	-0.047441363
130	0x3dc46922	0.09590365
131	0x3bb4d475	0.005518491
132	0x3c8d34ef	0.017237155
133	0x3d8dd060	0.0692451
134	0x3d805f0d	0.062681295
135	0xbd7fb3e7	-0.062427428
136	0xbd2d5c07	-0.042324092
137	0xbd5fff9b	-0.054687124
138	0xbd6a3b3e	-0.057185404
139	0x3c0d9ba2	0.008643063
140	0xbde21cb9	-0.11040635
141	0x3c64a0e6	0.013954377
142	0xbc71d316	-0.014759799
143	0xbdec47e0	-0.115371466
144	0x3d7735bb	0.060353976
145	0xbd24123e	-0.04005646
146	0x3d60d56e	0.054891042
147	0xbd8524fe	-0.06501196
148	0x3da957b0	0.08268678
149	0xbca8b036	-0.020591836
150	0xbc97fdd6	-0.018553656
151	0x3d153aa6	0.036432885
152	0xbd8da686	-0.069165275
153	0xbcb5e5fc	-0.022204392
154	0xbb9e1058	-0.0048237257
155	0xbd3384e9	-0.043827925
156	0xbd3747fe	-0.04474639
157	0x3d1e9133	0.03871269
158	0xbd0191b6	-0.0316331
159	0xbd9027c9	-0.070388384
160	0xbc79d37d	-0.015248177
161	0xbe024072	-0.12719896
162	0xbd8794a4	-0.06620148
163	0x3d1c16d2	0.0381077
164	0xbce9aeab	-0.028525671
165	0x3d03d961	0.03218973
166	0x3d041323	0.032244813
167	0x3d0db682	0.03459788
168	0xbcbfd853	-0.023418581
169	0xbd058d67	-0.032605555
170	0xbcda6deb	-0.026663741
171	0x3d4d1fd6	0.05007919
172	0xbd7e4657	-0.0620788
173	0xbd5b2ae5	-0.053507704
174	0xbc73365f	-0.014844506
175	0xbddeb982	-0.108752266
176	0x3d122fd4	0.035690144
177	0x3bbf6d0a	0.005841856
178	0x3d051c25	0.032497544
179	0xbc97671e	-0.018481787
180	0xbbcdda4c	-0.0062821265
181	0xbe001f1d	-0.12511869
182	0xbd2fd5bf	-0.042928454
183	0xbdea3f7f	-0.11437892
184	0xbe0268d1	-0.12735297
185	0xbdba7ee5	-0.091062345
186	0xbd0092a3	-0.031389844
187	0xbde60c8a	-0.112328604
188	0xbc95a82c	-0.018268667
189	0xbdf651b7	-0.120273046
190	0x3d402007	0.046905544
191	0xbd4b8b71	-0.04969353
192	0xbda421bc	-0.08014247
193	0x3d0751a2	0.033036835
194	0x3d1bd53d	0.038045157
195	0xbdba3837	-0.090927534
196	0xbdf36a24	-0.11885479
197	0xbdc215e2	-0.0947683
198	0xbd4fa822	-0.050697453
199	0xbd8adef0	-0.06780803
200	0xbcc824bd	-0.02443158
201	0x3d46c9ba	0.048532225
202	0xbcb6f3a4	-0.022332974
203	0x3d1b4bcc	0.037914082
204	0xbd532085	-0.051544685
205	0xbda4bdfb	-0.080440484
206	0xbcfed5ec	-0.031107865
207	0x3de55220	0.11197305
208	0x3d81dd9c	0.06341097
209	0x3dc63d32	0.09679641
210	0x3d9e75d3	0.07737317
211	0x3d7b8587	0.06140664
212	0xbd72916b	-0.059220713
213	0xbdc00fab	-0.093779884
214	0x3bf6317f	0.0075132246
215	0xbd9049b6	-0.07045309
216	0xbde7200e	-0.11285411
217	0xbda7bd7a	-0.08190437
218	0xbdcd1ef7	-0.10015672
219	0xbe056e31	-0.13030316
220	0xbdd0a674	-0.101879984
221	0x3cd6e175	0.026230553
222	0xbddd9f5b	-0.1082141
223	0xbda04978	-0.07826513
224	0xbcf38a23	-0.029728955
225	0xbb97c90f	-0.0046321223
226	0xbd4181f6	-0.04724308
227	0xbde45ec5	-0.11150888
228	0x3c952fb3	0.018211221
229	0xbd50a1e0	-0.050935626
230	0xbdc3d233	-0.09561577
231	0xbd5dd160	-0.054154754
232	0xbe01d043	-0.12677102
233	0x3bad79dc	0.005294068
234	0xbc1a823f	-0.009430467
235	0x3cdeb5a5	0.027186224
236	0x3d2117da	0.039329387
237	0x3dba96da	0.09110804
238	0x3cbf4c21	0.02335173
239	0x3a18358b	0.00058063184
240	0x3dd03658	0.10166615
241	0x3dc8be1e	0.09801887
242	0x3ddfbd1a	0.1092474
243	0xbdc2ede9	-0.09518034
244	0xbda4a240	-0.08038759
245	0xbd9b1adf	-0.07573485
246	0xbd910c22	-0.07082392
247	0x3b2b0f72	0.0026101735
248	0x3d42e553	0.047581982
249	0x3c09df2c	0.008415025
250	0xbdcb3a05	-0.09923176
251	0x3bdd3562	0.0067507485
252	0x3d5daa5d	0.05411755
253	0x3bcd6d50	0.0062691346
254	0x3db51976	0.08842747
255	0x3e25e9de	0.16202495

conv2.bias f4 [32]
0	0xbe10c88d	-0.14139004
1	0xbdb367e7	-0.08760052
2	0xbd40e2d9	-0.04709134
3	0xbc4caf02	-0.012492897
4	0xbd95fc44	-0.073235065
5	0x3b72c377	0.0037042776
6	0xbdb0663e	-0.08613251
7	0x3c46de3c	0.012137946
8	0xbded12d6	-0.11575858
9	0xbe0294f0	-0.12752128
10	0xbdb5bd0f	-0.08873951
11	0xbdc4a1cb	-0.09601172
12	0xbd0731f6	-0.03300663
13	0xbdb668b0	-0.08906686
14	0xbd864e87	-0.06557947
15	0xbd3ea97c	-0.04654835
16	0xbd52e9b2	-0.0514924
17	0xbd30602a	-0.04306046
18	0xbcab053f	-0.020876525
19	0xbd8996dc	-0.06718227
20	0xbd626c8d	-0.055279303
21	0xbdce9dac	-0.10088667
22	0xbcb715df	-0.022349296
23	0xbb0beb87	-0.0021350102
24	0xbded6a77	-0.11592572
25	0x3cd357ce	0.025798704
26	0xbd89fe68	-0.06737977
27	0xbe0b84d6	-0.13624892
28	0xbd9714ec	-0.073770374
29	0xbdc08690	-0.09400666
30	0xbda13918	-0.07872218
31	0xbe056dcf	-0.1303017

conv3.weight f4 [64, 32, 3, 3]
0	0xbc775347	-0.015095538
1	0x3db8a907	0.090166144
2	0x3c3df002	0.011592867
3	0x3ccee011	0.025253328
4	0x3d4c6903	0.049904834
5	0xbca516f0	-0.020152539
6	0xbb6d0aac	-0.003616969
7	0xbda50c0e	-0.0805894
8	0xbd98f94c	-0.074694246
9	0xbc2fbd06	-0.010726219
10	0xbd890193	-0.066897534
11	0xbc6f99d6	-0.01462408
12	0xbdc08ffa	-0.09402461
13	0xbd952591	-0.07282556
14	0xbd9ecebb	-0.077542745
15	0xbcdeac46	-0.027181756
16	0xbd8a5628	-0.06754714
17	0xbcb470f2	-0.022026513
18	0xbd0d4fd5	-0.034499962
19	0xbd856c47	-0.06514793
20	0xbd845d12	-0.06463064
21	0xbdddcfd5	-0.108306564
22	0xbded3181	-0.11581708
23	0xbd33e3c8	-0.0439184
24	0xbda6062e	-0.081066474
25	0xbcc3c668	-0.023898318
26	0xbdf756e5	-0.12077121
27	0xbca1f966	-0.019772243
28	0xbded64cb	-0.1159149
29	0xbcd983c0	-0.026552081
30	0xbdc4dc72	-0.09612359
31	0xbd856df1	-0.0651511
32	0x3d858a7e	0.06520556
33	0x3cb995b5	0.022654394
34	0x3dd930a7	0.10604983
35	0x3d4b80b0	0.049683273
36	0x3dd90636	0.10596888
37	0x3c479d12	0.012183445
38	0x3c79a891	0.015237943
39	0xbbb2b169	-0.005453278
40	0xbc8bb532	-0.017054174
41	0x3daa8e7a	0.083279565
42	0xbdbe755e	-0.0929973
43	0xbd552a79	-0.05204246
44	0x3ddcc533	0.107798
45	0xbca5d56a	-0.020243365
46	0xbdc90748	-0.09815842
47	0xbd8fe40b	-0.070259176
48	0xbd43606c	-0.047699377
49	0xbdbb75e0	-0.09153342
50	0xbd912067	-0.070862584
51	0xbd422b68	-0.047404677
52	0xbdf7f8d0	-0.12108004
53	0xbd9a8de9	-0.075465985
54	0xbd88d168	-0.06680566
55	0xbbad45ae	-0.0052878475
56	0xbddfe6b0	-0.10932672
57	0xbddfff61	-0.109373815
58	0xbde73634	-0.11289635
59	0xbd96391f	-0.07335114
60	0xbdacec1c	-0.08443472
61	0xbd9a74c9	-0.07541806
62	0xbdc168cf	-0.09443819
63	0xbd150356	-0.036380135
64	0xbdb5e13c	-0.08880851
65	0x3d230829	0.039802704
66	0x3d17cb0f	0.037058886
67	0xbd7257c9	-0.05916575
68	0x3d8ed1c3	0.069736026
69	0xbe095e6e	-0.13414928
70	0x3d98d68f	0.07462799
71	0x3d62611f	0.055268403
72	0xbd0509c5	-0.03248002
73	0xbdc79d64	-0.09746817
74	0x3c4739d7	0.012159786
75	0x3d204430	0.03912753
76	0x3c5df74f	0.0135477325
77	0x3dd975e1	0.10618187
78	0x3d255c46	0.040371202
79	0x3d65b344	0.056079164
80	0x3d00bf93	0.0314327
81	0xbce6ed8e	-0.028189447
82	0xbd4d79be	-0.05016493
83	0x3d940a25	0.072284974
84	0xbd9a9576	-0.07548039
85	0xbdebd04a	-0.11514337
86	0x3dc2c719	0.09510631
87	0xbdcd3547	-0.100199275
88	0xbd8ab9ce	-0.06773721
89	0x3c5dd9cc	0.013540696
90	0xbd5ffcbb	-0.054684382
91	0xbc9633ed	-0.018335307
92	0xbcc5b7e9	-0.024135547
93	0xbde67a96	-0.1125385
94	0xbb1b4cbc	-0.002369686
95	0xbdd52c80	-0.10408878
96	0xbccdfa8e	-0.025143888
97	0xbddbd93e	-0.10734795
98	0xbded034b	-0.11572894
99	0xbbfdc721	-0.0077446853
100	0xbdde3b4d	-0.108511545
101	0xbd2bffc8	-0.04199198
102	0xbcd9d5a8	-0.026591137
103	0xbdbed749	-0.09318406
104	0xbd72381b	-0.059135538
105	0xbda8eb6e	-0.0824803
106	0xbcca2735	-0.024676898
107	0xbdc4f3e3	-0.0961683
108	0x3d1dc4ed	0.03851788
109	0xbcd8ec47	-0.026479853
110	0x3dcdda35	0.10051385
111	0xbcedb03e	-0.029014703
112	0xbd2e60e1	-0.04257286
113	0xbc5b7685	-0.0133949565
114	0x3cccd6d3	0.02500478
115	0xbdec5bfa	-0.11540981
116	0x3d6eb283	0.05827571
117	0xbd94ebe1	-0.07271553
118	0x3dc0d703	0.0941601
119	0xbdb29969	-0.08720667
120	0xb9dd6500	-0.00042227656
121	0x3b3735f1	0.0027955736
122	0x3dd80ba9	0.10549099
123	0xbb3e55c3	-0.0029042817
124	0x3d8f2d0e	0.069910154
125	0xbc91aaf8	-0.01778172
126	0xbd3dad52	-0.04630787
127	0xbd374892	-0.044746943
128	0xbd6ce009	-0.057830844
129	0xbdf584d2	-0.11988224
130	0xbbee76fe	-0.0072773686
131	0xbd7a5441	-0.061115507
132	0xbd82b2f2	-0.06381787
133	0xbdbb4bef	-0.091453426
134	0xbd4a1072	-0.04933209
135	0xbcfc0027	-0.030761791
136	0x3b04969c	0.0020231372
137	0xbc092cb8	-0.008372478
138	0xbce481b5	-0.02789388
139	0xbcb0e09a	-0.021591473
140	0xbb5e6c61	-0.003393911
141	0xbd9ae9c8	-0.075641215
142	0xbda6ac81	-0.08138371
143	0xbd73593d	-0.059411276
144	0xbdd941d2	-0.10608257
145	0xbd5b8c12	-0.05360038
146	0xbde34797	-0.11097639
147	0xbbd6a9d0	-0.006551005
148	0xbc816074	-0.015793063
149	0xbcb8d057	-0.022560282
150	0xbd3f1a80	-0.04665613
151	0xbcf29000	-0.02960968
152	0xbdca5150	-0.098787904
153	0xbd16b38d	-0.036792327
154	0xbc731934	-0.014837552
155	0x3b89bf96	0.004203747
156	0xbd3bde3b	-0.045866232
157	0xbd77d261	-0.060503367
158	0xbda5b5fe	-0.08091353
159	0xbe0d783a	-0.13815394
160	0xbd561410	-0.052265227
161	0xbdc28ab1	-0.094991095
162	0xbcd4b8cf	-0.02596703
163	0x3c0c46b9	0.0085617835
164	0x3cddb17d	0.027062172
165	0x3dbd60b9	0.09246964
166	0xbcb405ea	-0.021975476
167	0xbdb9ea65	-0.0907791
168	0xbd15674e	-0.036475472
169	0xbdab9715	-0.08378426
170	0x3dd00ba3	0.101584695
171	0xbce2cd2d	-0.027685726
172	0xbc5ffbbc	-0.013670858
173	0xbd77fdd3	-0.0605448
174	0x3b67b4d7	0.0035355592
175	0x3ca518e9	0.02015348
176	0xbc01990f	-0.007910027
177	0x3ccc7f9a	0.024963189
178	0x3a4d04a9	0.0007820824
179	0xbc99211c	-0.018692546
180	0x3ab7dc21	0.0014027396
181	0xbdc2c86e	-0.09510885
182	0xbcd4596e	-0.02592155
183	0xbde60527	-0.112314515
184	0xbd9a3188	-0.075289786
185	0xbdcbcce6	-0.09951191
186	0xbde4a2cd	-0.11163864
187	0xbda6a58f	-0.081370465
188	0xbd892f9c	-0.06698534
189	0xbd9b620a	-0.07587059
190	0xbb22cdff	-0.0024842022
191	0xbdb35f9a	-0.08758469
192	0xbbb4da34	-0.005519176
193	0xbcc1e57d	-0.023668999
194	0xbdc02b61	-0.09383274
195	0xbdf2b749	-0.11851365
196	0xbc81ef9c	-0.015861325
197	0xbde58a10	-0.11207974
198	0xbcf763ca	-0.03019895
199	0x3d5f942f	0.05458468
200	0x3d5eccfd	0.05439471
201	0xbd54b412	-0.05192954
202	0xbdb8f2d8	-0.09030694
203	0x3d79b471	0.060963098
204	0xbcdf888c	-0.02728679
205	0xbd38145b	-0.044941287
206	0x3d95244f	0.07282316
207	0xbddf7c3c	-0.10912368
208	0xbd8e33db	-0.069434844
209	0xbd91a04d	-0.07110653
210	0xbd8ab81f	-0.067733996
211	0xbcd6c2ec	-0.026215993
212	0xbda15d9a	-0.07879181
213	0xbe0d0bc6	-0.13774022
214	0xbe0d5489	-0.13801779
215	0xbd859b13	-0.06523719
216	0xbdaaf8c7	-0.08348232
217	0xbb6ceaaf	-0.0036150625
218	0xbde21ff3	-0.1104125
219	0xbc5e048c	-0.013550889
220	0xbdcf3248	-0.10117012
221	0xbd425136	-0.04744073
222	0xbd071135	-0.032975394
223	0xbdf00007	-0.11718755
224	0xbddaab5e	-0.10677217
225	0xbd669d21	-0.056302194
226	0xbc7aa84f	-0.015298917
227	0xbc268696	-0.010163924
228	0xbd30178f	-0.042991217
229	0xbd7804f6	-0.060551606
230	0xbd0ba5e4	-0.034093753
231	0xbc506ae7	-0.0127208
232	0xbc79bed6	-0.015243253
233	0xbcc7a730	-0.024371713
234	0x3d7c06ea	0.06153003
235	0x3d0e7a9a	0.03478489
236	0x3d7f36fd	0.0623083
237	0xbd16bac5	-0.03679921
238	0x3d697a1d	0.057001222
239	0x3d1a9aaa	0.037745155
240	0xbd33c4c5	-0.043888826
241	0x3cd697c9	0.026195424
242	0x3d934d0d	0.07192431
243	0xbde61bf5	-0.11235801
244	0xbdfef3db	-0.124488555
245	0x3ceb99b8	0.028759822
246	0xba94b3a3	-0.001134504
247	0xbde61292	-0.11234011
248	0x3dab9809	0.08378608
249	0xbb4f81ef	-0.003166314
250	0x3d9d245b	0.0767295
251	0x3c7db6f0	0.01548551
252	0xbd47adbe	-0.048749678
253	0xbd8b5db8	-0.06804985
254	0xbb93d9c1	-0.0045120423
255	0xbd0cd06d	-0.034378458

conv3.bias f4 [64]
0	0x3dbc9553	0.09208169
1	0xbd7cfca2	-0.061764367
2	0xbd0a2086	-0.033722423
3	0xbd8a7928	-0.0676139
4	0xbdcfe8a6	-0.10151796
5	0xbd9568dc	-0.07295391
6	0xbdac42ce	-0.084111795
7	0xbcf4eb16	-0.029897254
8	0xbd3984f6	-0.045292817
9	0xbd29364f	-0.04131156
10	0xbd9da041	-0.07696582
11	0xbd93856f	-0.07203185
12	0x3dc1feb6	0.094724104
13	0xbcdfc910	-0.027317554
14	0xbddedd34	-0.10882035
15	0xbcc450af	-0.023964254
16	0x3de9f17c	0.114230126
17	0xbd414677	-0.04718634
18	0xbdbde389	-0.092719145
19	0xbdc7a99d	-0.09749148
20	0xbd646241	-0.055757765
21	0xbdd603b1	-0.10449923
22	0xbdb89484	-0.09012702
23	0xbd68d78b	-0.056846183
24	0xbd31dfa5	-0.043426175
25	0xbd41bcfd	-0.047299374
26	0xbd2d3511	-0.042286936
27	0xbddca4d2	-0.107736245
28	0xbd4ad198	-0.04951629
29	0xbdc66ef8	-0.09689134
30	0xbd8f2ac7	-0.06990581
31	0xbdc36ce1	-0.095422514
32	0xbd7244b8	-0.059147567
33	0xbd97e08e	-0.07415877
34	0xbcefae70	-0.029257983
35	0xbd2ad5c5	-0.041707773
36	0xbd31cae3	-0.04340638
37	0xbcfed834	-0.031108953
38	0xbcc4df93	-0.02403239
39	0xbde6ed24	-0.112757
40	0xbd812f56	-0.06307857
41	0xbdc49b3a	-0.095999196
42	0xbd992e97	-0.074795894
43	0xbd01fd84	-0.031735912
44	0xbdcbdc78	-0.099541605
45	0xbd2f452e	-0.042790584
46	0xbd1a2a7f	-0.037638184
47	0xbda1bdd0	-0.07897532
48	0xbda24f66	-0.079253
49	0xbd146a3d	-0.03623413
50	0xbd902814	-0.07038894
51	0xbd9517cb	-0.07279929
52	0xbc28b322	-0.010296615
53	0xbd9f5b55	-0.07781092
54	0xbd1b35e9	-0.03789321
55	0xbdb08a04	-0.086200744
56	0xbd1c7b0d	-0.038203288
57	0xbd8668f0	-0.06562984
58	0xbcdf3128	-0.02724512
59	0xbd969b97	-0.07353895
60	0xbd03af76	-0.032149754
61	0xbdc379ff	-0.09544753
62	0xbd4b8ffc	-0.04969786
63	0xbc45cbc1	-0.0120725045

fc1.weight f4 [120, 1024]
0	0x3d65fb4d	0.056147862
1	0x3d16ee8f	0.0368486
2	0x3dceda02	0.101001754
3	0x3d9d24a4	0.07673004
4	0x3dc90087	0.09814554
5	0x3d548aed	0.051890302
6	0x3d41051f	0.047124024
7	0x3d307922	0.04308427
8	0x3d98604c	0.07440242
9	0x3ccf2a95	0.02528886
10	0x3c5aba4f	0.0133500835
11	0x3d927f94	0.0715324
12	0x3d0de764	0.0346445
13	0x3d993637	0.07481044
14	0x3d615957	0.05501684
15	0x3dc1ce25	0.09463147
16	0x3cf15683	0.029460197
17	0x3d254250	0.040346444
18	0x3d8b2ae3	0.06795289
19	0x3da200eb	0.07910331
20	0x3d97145b	0.073769294
21	0x3d7a5f4c	0.06112604
22	0x3d960d0a	0.07326706
23	0x3d6d3433	0.05791111
24	0x3d9116cf	0.070844285
25	0x3d8108e2	0.063005224
26	0x3d625938	0.055260867
27	0x3da5f247	0.08102851
28	0x3d0b3cf6	0.033993684
29	0x3d24c75b	0.040229183
30	0x3d0f7f2c	0.03503339
31	0x3d155dbf	0.036466356
32	0x3de32a29	0.11092026
33	0x3d85e901	0.065385826
34	0x3db75c74	0.08953181
35	0x3dd6e9b9	0.10493798
36	0x3d4919ac	0.04909675
37	0x3d6215d4	0.0551966
38	0x3d9e9657	0.07743519
39	0x3db41ea6	0.08794908
40	0x3d237f9b	0.039916616
41	0x3d11b25e	0.035570495
42	0x3d795c86	0.060879253
43	0x3d83bf77	0.064330034
44	0x3d2daf5d	0.042403568
45	0x3d706c7d	0.058697212
46	0x3d2fe32a	0.04294125
47	0x3d9c7854	0.07640138
48	0x3d4e8959	0.050423954
49	0x3daaeff8	0.08346552
50	0x3d304679	0.043035958
51	0x3d62868c	0.055304095
52	0x3d916f87	0.0710135
53	0x3d67a0ec	0.05654995
54	0x3d2e9700	0.042624474
55	0x3d661bce	0.05617886
56	0x3d727605	0.059194583
57	0x3da53a3a	0.080677465
58	0x3d39683c	0.04526542
59	0x3d260cf5	0.0405397
60	0x3d07beee	0.03314107
61	0x3da35187	0.079745345
62	0x3d8345a2	0.06409766
63	0x3d80bb01	0.06285668
64	0x3ccb41cc	0.024811648
65	0xbc17b2ae	-0.009258909
66	0xbbddc09c	-0.0067673456
67	0xbd0531f9	-0.03251836
68	0xbcaf3574	-0.021387793
69	0x3cba8c49	0.022771971
70	0xbcc4b219	-0.024010705
71	0xbd45bfc4	-0.048278585
72	0xbde14885	-0.1100016
73	0x3c80c477	0.015718682
74	0x3d7bac66	0.06144371
75	0xbd89fd18	-0.06737727
76	0xbd8d77dc	-0.06907627
77	0x3bfe7e34	0.0077665094
78	0xbd30f48a	-0.04320196
79	0x3d3daa0e	0.046304755
80	0x3d40caaa	0.047068276
81	0xbaba9324	-0.0014234525
82	0x3d52b3ed	0.05144112
83	0x3d7da962	0.061929114
84	0x3ddcbd81	0.107783325
85	0x3d713a5b	0.058893543
86	0x3ddf64e5	0.10907916
87	0x3d824845	0.063614406
88	0x3dea48ad	0.11439643
89	0xbd32a120	-0.043610692
90	0xbcb4aa90	-0.022053987
91	0x3de02b3d	0.10945747
92	0xbd88edb1	-0.06685961
93	0xbd7a810f	-0.061158236
94	0xbc336561	-0.010949464
95	0xbda5db7b	-0.08098503
96	0xbc24ec24	-0.010066066
97	0x3cc84bcc	0.024450205
98	0xbca2a4fe	-0.019854065
99	0x3b76d470	0.0037663244
100	0x3cb687b8	0.022281513
101	0x3c585298	0.013203286
102	0x3cb7a8ce	0.02241936
103	0x3bc66118	0.006054055
104	0xbcb8de96	-0.022567075
105	0x3bad6d58	0.005292576
106	0x3cec31a8	0.028832272
107	0x3c4e7f9c	0.012603667
108	0x3c95fa94	0.018307962
109	0xbcd665b6	-0.026171546
110	0x3cc3f7aa	0.023921806
111	0xbb82c620	-0.0039909035
112	0xbd92de67	-0.07171326
113	0xbe0a7963	-0.13522868
114	0xbd528fe6	-0.051406763
115	0xbd73668c	-0.05942397
116	0xbdad9af1	-0.08476818
117	0xbd952d73	-0.072840594
118	0xbdc443b5	-0.095832266
119	0xbdfef65f	-0.12449335
120	0x3b8b1613	0.004244575
121	0x3c67ccef	0.014147981
122	0xbd8391b9	-0.06424279
123	0xbddd542a	-0.10807069
124	0xbc5dcde7	-0.0135378605
125	0xbd52f0cf	-0.051499184
126	0xbd969bb5	-0.073539175
127	0xbd65dd0b	-0.056119006
128	0x3caf866e	0.021426406
129	0x3c20890c	0.0097982995
130	0x3d641237	0.055681434
131	0x3dc14782	0.09437467
132	0x3ca3e5f0	0.020007104
133	0x3c94b047	0.018150462
134	0x3c481ae9	0.012213447
135	0x3d85016c	0.06494412
136	0x3c182531	0.009286211
137	0x3cd5de9b	0.026107123
138	0x3d947194	0.07248226
139	0x3d92c77c	0.07166955
140	0x3d0874d2	0.033314534
141	0x3d3d127c	0.046160206
142	0x3d5d0d1c	0.05396758
143	0x3dbc8b0c	0.092062086
144	0xbcadab63	-0.021199888
145	0x3d3c657b	0.045995217
146	0xbb3dda96	-0.0028969399
147	0xbcb3cd0d	-0.021948362
148	0x3da3f4f5	0.08005706
149	0x3ddbd905	0.107347526
150	0x3d003237	0.03129789
151	0x3d12c14f	0.035828885
152	0x3d56c889	0.05243734
153	0x3da6976f	0.081343524
154	0x3cd89c85	0.026441822
155	0x39ac46a7	0.00032859037
156	0x3dab25b8	0.08356804
157	0x3d9d1217	0.07669466
158	0x3d5587fc	0.052131638
159	0x3d56874f	0.052375134
160	0x3daa71c5	0.08322481
161	0x3d93a928	0.07209998
162	0xbc1d07f7	-0.0095844185
163	0xbd322aa4	-0.043497697
164	0x3d41a764	0.047278777
165	0x3d05c604	0.032659546
166	0x3d79c335	0.06097718
167	0xbd0c2c1e	-0.03422176
168	0x3db65da1	0.08904577
169	0x3d5cd3bd	0.053912867
170	0x3dab4942	0.08363582
171	0x3d63b55b	0.055592876
172	0x3cfd96c8	0.030955687
173	0x3d14e2b6	0.03634902
174	0xbd84a8a6	-0.0647748
175	0x3d2b106b	0.041763704
176	0x3d8b00ac	0.067872375
177	0x3daedf1f	0.08538651
178	0x3d9116e7	0.070844464
179	0x3d9fd30e	0.07803927
180	0x3c5df8fc	0.013548132
181	0x3c46a8f3	0.012125242
182	0x3d8d947a	0.06913085
183	0x3dab1213	0.08353057
184	0x3c284c70	0.01027213
185	0x3d0d3aa3	0.03447975
186	0x3dcf1365	0.10111121
187	0x3d1563fd	0.03647231
188	0x3d5e6a14	0.054300383
189	0x3d5c540a	0.053791083
190	0x3da4b929	0.08043129
191	0x3d45bcdd	0.048275817
192	0x3d223885	0.039604682
193	0x3c2274ef	0.009915574
194	0x3d05089e	0.03247892
195	0x3d8d27ee	0.068923816
196	0x3d71f0e5	0.059067626
197	0x3ad14087	0.0015964665
198	0x3d5b3a0d	0.05352216
199	0x3d053d84	0.03252937
200	0x3db08226	0.08618574
201	0x3ce0bae8	0.027432874
202	0x3d450620	0.048101544
203	0x3d998906	0.07496838
204	0x3d935c71	0.07195366
205	0xbc28033e	-0.010254679
206	0x3cd6f08e	0.026237752
207	0x3d115464	0.03548087
208	0x3d4264a5	0.047459263
209	0x3ce8805b	0.028381517
210	0x3d21b120	0.03947556
211	0x3d958f7d	0.07302759
212	0x3d7a5ceb	0.06112377
213	0xbb82ddc7	-0.003993723
214	0x3d2cf75e	0.042228095
215	0x3d5a7216	0.053331457
216	0x3d18f6ca	0.03734473
217	0x3d59d1d0	0.05317861
218	0x3c122278	0.008919351
219	0x3ca7a11c	0.020462565
220	0x3d25251e	0.0403186
221	0x3d538c4c	0.05164747
222	0x3d07d800	0.033164978
223	0x3da52c41	0.080650814
224	0xbce8d4fe	-0.028421875
225	0x3b825778	0.0039777122
226	0xbc988364	-0.01861734
227	0x3cec4312	0.028840575
228	0xbb9f6018	-0.00486375
229	0xbc830728	-0.015994623
230	0xbc250284	-0.010071401
231	0xbc5016b4	-0.012700725
232	0x3c828c86	0.015936147
233	0xbc252244	-0.01007897
234	0x3cd09a98	0.025464341
235	0x3cdf4826	0.027256083
236	0xbcda4748	-0.026645318
237	0x3c48d6d8	0.012258254
238	0xbce7d30a	-0.028298873
239	0xbce959c8	-0.028485194
240	0xbaf89b3f	-0.0018967165
241	0x3b9cab52	0.004781165
242	0xbcac0d50	-0.021002442
243	0xbcd7a354	-0.026322998
244	0xbd57bb28	-0.05266872
245	0xbd2864c0	-0.041111708
246	0xbc33d5d9	-0.010976278
247	0xbcf6c0a0	-0.030121148
248	0xbce0dd5f	-0.027449308
249	0xbbba39c5	-0.005683156
250	0x3c3cce7a	0.011523837
251	0xbca9b01f	-0.020713864
252	0xbd446407	-0.047946956
253	0xbcf02eda	-0.029319216
254	0xbc58d6e3	-0.013234827
255	0xbc9e1080	-0.019294977

fc1.bias f4 [120]
0	0x3db98ceb	0.09060081
1	0x3c9aba8b	0.018887779
2	0xbcfe9e60	-0.031081378
3	0xbd9d2024	-0.07672146
4	0x3daf6222	0.08563639
5	0xbd6ad7a5	-0.05733456
6	0xbd31d986	-0.043420337
7	0xbd631e29	-0.055448685
8	0xbd7b9114	-0.061417654
9	0xbd43921b	-0.04774676
10	0xbd9e1fa3	-0.07720878
11	0xbd430d15	-0.047619898
12	0xbd2dcc52	-0.042431183
13	0xbd9211e6	-0.0713232
14	0xbd57030a	-0.052493133
15	0xbd439d92	-0.047757693
16	0x3dd12092	0.102112904
17	0xbdc8ecda	-0.09810801
18	0x3d917e67	0.071041875
19	0xbcc63ec8	-0.024199858
20	0xbdab683c	-0.083694905
21	0xbd9f1a84	-0.07768729
22	0x3dc6c8e4	0.097062856
23	0xbd17e2c7	-0.037081506
24	0x3d8e4fb5	0.06948797
25	0xbceb5b5a	-0.028730083
26	0xbd45856e	-0.04822295
27	0xbd644f67	-0.055739786
28	0xbd703744	-0.058646455
29	0xbd9dea8a	-0.077107504
30	0xbd5a7abc	-0.053339705
31	0x3b0df3df	0.002166025
32	0xbcee89b2	-0.029118393
33	0xbd7dfedc	-0.06201063
34	0x3da8af45	0.08236555
35	0xbd9477a2	-0.07249381
36	0x3daf8730	0.08570707
37	0x3d9441a1	0.0723908
38	0x3d7a60b2	0.061127372
39	0xbcfb3aa8	-0.030667618
40	0xbd8c0696	-0.06837194
41	0xbc854584	-0.0162685
42	0xbd9d4e2d	-0.076809265
43	0xbd3ba7cb	-0.045814317
44	0xbd340db7	-0.043958392
45	0xbd2182df	-0.03943145
46	0xbd3694c3	-0.044575464
47	0xbd2e3042	-0.04252649
48	0x3c1d3cdc	0.00959703
49	0xbd30b583	-0.043141853
50	0x3d49c8c6	0.049263738
51	0xbd81e5be	-0.06342648
52	0xbd97e604	-0.07416919
53	0xbd7c97bf	-0.061668154
54	0x3d80d585	0.062907256
55	0xbd4c905b	-0.049942356
56	0xbd4456b4	-0.04793425
57	0xbcffe6bc	-0.031237952
58	0xbd802a6f	-0.062580936
59	0xbd242d51	-0.04008228
60	0x3ce727ac	0.02821716
61	0xbd7e2d16	-0.062054716
62	0xbd52d5ee	-0.05147355
63	0xbd5d42b7	-0.054018702
64	0xbccbe599	-0.024889754
65	0xbd5ebc1f	-0.054378625
66	0xbd3a78f8	-0.04552552
67	0x3dce53c9	0.100745745
68	0xbd87c8d9	-0.066301055
69	0xbd000164	-0.031251326
70	0xbd58dc60	-0.05294454
71	0xbd9d7e41	-0.07690097
72	0xbdb061ea	-0.086124256
73	0x3da89494	0.08231464
74	0xbd74850b	-0.059697192
75	0xbd7bcee4	-0.061476603
76	0xbd17602b	-0.036956947
77	0xbd387c4b	-0.04504041
78	0xbda8b36e	-0.082373485
79	0xbd3680f6	-0.04455658
80	0xbd3b4c3d	-0.045727003
81	0x3d3302b3	0.043703746
82	0xbd3f147e	-0.046650402
83	0xbccb79c0	-0.024838328
84	0xbc95c8ba	-0.01828419
85	0xbc93c5ee	-0.018038716
86	0xbd9bcf07	-0.07607847
87	0xbd172f64	-0.03691043
88	0xbd4defe4	-0.050277606
89	0xbd92be32	-0.07165183
90	0xbcd4493d	-0.025913829
91	0xbd902522	-0.070383325
92	0xbae0d9bb	-0.0017154732
93	0xbd5835e5	-0.052785773
94	0xbd0f53cf	-0.034992035
95	0xba9680da	-0.0011482493
96	0xbd9eaa75	-0.07747356
97	0xbd49d5c1	-0.049276117
98	0xbd3dde59	-0.046354625
99	0xbda396f4	-0.079877764
100	0x3ddc9e5d	0.10772393
101	0xbd922915	-0.07136742
102	0xbdab76f5	-0.08372299
103	0x3d7a5b17	0.061122026
104	0xbd7fc9b1	-0.062448207
105	0xbd94dfbe	-0.07269238
106	0xbcf71d94	-0.030165471
107	0x3d817081	0.063202865
108	0xbd475b0e	-0.04867082
109	0xbd9dcdfc	-0.07705304
110	0xbd49ee60	-0.049299598
111	0xbd4563a0	-0.048190713
112	0xbd811a19	-0.06303806
113	0xbd0e3812	-0.03472144
114	0xbcf6eb6d	-0.030141557
115	0x3c00728b	0.007839809
116	0xbd4d0eec	-0.05006306
117	0xbd89f9a1	-0.06737066
118	0xbd67fdce	-0.05663853
119	0x3defb09f	0.1170361

fc2.weight f4 [84, 120]
0	0xbd915d59	-0.07097883
1	0x3dab8e1b	0.08376714
2	0x3cbb75fd	0.02288341
3	0xbd21b461	-0.039478663
4	0xbe010f44	-0.1260348
5	0x3d35c5b5	0.044378
6	0xbd9a6921	-0.07539583
7	0x3d965ea3	0.07342269
8	0x3da80ac9	0.08205182
9	0xbd815b2b	-0.06316217
10	0x3c42cf8e	0.011890305
11	0x3db43830	0.087997794
12	0xbda56a80	-0.08076954
13	0xbccf798c	-0.025326513
14	0x3c1daf56	0.009624323
15	0xbbe77258	-0.0070631914
16	0xbda996f3	-0.082807444
17	0x3cd5f0d5	0.026115814
18	0x3ced22bd	0.028947229
19	0x3d87dcd2	0.06633915
20	0x3d35bc86	0.044369243
21	0x3d5b7be7	0.05358496
22	0x3d4ca2de	0.04996001
23	0xbb2df0bf	-0.00265412
24	0xbd0cc11f	-0.034363862
25	0xbccfa88f	-0.02534893
26	0x3c15fd5c	0.009154644
27	0xbd916a64	-0.071003705
28	0xbd59ab7a	-0.05314205
29	0xbd26f9dd	-0.040765632
30	0x3bf7603b	0.0075493134
31	0x3d2cf2a1	0.042223576
32	0x3dad595d	0.0846431
33	0xbd5d4a54	-0.054025963
34	0x3d24adb3	0.040204715
35	0xbda4a071	-0.08038414
36	0xbdb498f5	-0.08818237
37	0xbd1f2566	-0.038854025
38	0xbd689b12	-0.05678851
39	0xbc013cff	-0.007888078
40	0xbcc0ba81	-0.023526432
41	0x3d6271f6	0.055284463
42	0x3cb8803d	0.022522086
43	0x398fb6e4	0.0002741135
44	0xbdb01caa	-0.08599217
45	0xbda6efab	-0.08151182
46	0x3d2c3812	0.04204566
47	0xbdb271be	-0.08713101
48	0xbd10f8d4	-0.03539355
49	0xbd9b3e18	-0.07580203
50	0x3d48e5c4	0.049047247
51	0xbd8a53be	-0.06754254
52	0x3d254e2c	0.040357754
53	0x3ceac7b2	0.028659675
54	0xbd98d307	-0.07462125
55	0x3d0b521e	0.03401386
56	0x3c562524	0.013070378
57	0xbceaa3af	-0.028642504
58	0xbd8b8947	-0.06813293
59	0xbd5cfd59	-0.05395255
60	0x3c4f631d	0.012657908
61	0xbd9fa77c	-0.07795617
62	0x3c5e14ea	0.013554791
63	0xb9fbec81	-0.0004805066
64	0xbd1d4453	-0.038395237
65	0xbd0e9b2e	-0.03481596
66	0x3c2d9417	0.010594389
67	0x3d27a9c2	0.040933378
68	0xbd9d6d87	-0.07686906
69	0x3c13e55e	0.009026853
70	0x3caf10df	0.02137035
71	0x3da1b776	0.078963205
72	0x3c565f6d	0.013084275
73	0xbd08f52b	-0.033436935
74	0xbc8382dd	-0.016053611
75	0xbd51c226	-0.051210545
76	0x3aa2d0f5	0.0012421893
77	0x3db3de90	0.08782685
78	0xbc1f3af9	-0.00971865
79	0xbd97f418	-0.07419604
80	0xbbffa516	-0.007801662
81	0xbe0021f1	-0.12512948
82	0xbd9e8880	-0.07740879
83	0xbd9d8e22	-0.07693125
84	0xbdaa7ccb	-0.083245836
85	0x3d912b2b	0.07088312
86	0x3c9dc787	0.019260181
87	0x3d227455	0.039661724
88	0xbdab593f	-0.08366632
89	0xbd1086f2	-0.035284944
90	0xbd0c791d	-0.03429519
91	0xbd5d6a4a	-0.054056443
92	0x3ccd8253	0.025086557
93	0xbd9f2fe7	-0.077728085
94	0x3da9fbc2	0.08299972
95	0xbc63ebca	-0.013911197
96	0x3bb36bec	0.005475512
97	0xbb331d53	-0.002733071
98	0xbd53d062	-0.0517124
99	0x3d401ce0	0.046902537
100	0x3d01c521	0.031682137
101	0x3d20576f	0.039145883
102	0xbc5dd46c	-0.013539415
103	0xbd439e7d	-0.047758568
104	0x3d9156cf	0.070966356
105	0xbc8e31e4	-0.017357774
106	0xbd8b5337	-0.06802981
107	0x3d057a0c	0.032587096
108	0xbdab1a0d	-0.08354578
109	0xbd9fadfa	-0.07796855
110	0xbba020be	-0.0048867157
111	0xbdadf65b	-0.08494254
112	0xbd46390b	-0.048394244
113	0x3c211bd4	0.009833295
114	0x3d5e2b85	0.054240722
115	0xba13b0ec	-0.00056339684
116	0x3d3dc85c	0.046333656
117	0x3d59aadf	0.05314147
118	0x3d89429c	0.06702158
119	0x3d48d364	0.049029723
120	0xbb577d7d	-0.0032881193
121	0x3b221f01	0.0024737718
122	0x3cd7384d	0.026271963
123	0xbe1248dd	-0.14285608
124	0x3d8b83ae	0.06812225
125	0xbc9c89eb	-0.019108733
126	0x3cd44735	0.02591286
127	0xbda24b87	-0.07924562
128	0x3def0bb7	0.11672156
129	0x3cf44067	0.029815866
130	0x3ba32873	0.004979187
131	0x3d9e4be9	0.077293225
132	0x3ca107d3	0.019657051
133	0x3cdd6871	0.02702734
134	0xbdd01168	-0.1015957
135	0x3dde3b16	0.108511135
136	0x3db47d45	0.08812956
137	0xbe248fa0	-0.16070414
138	0xbdc1e92a	-0.09468301
139	0xbbcd111b	-0.0062581426
140	0xbdc78c76	-0.09743588
141	0xbc904367	-0.017610265
142	0x3dd86332	0.10565795
143	0xbd63f73f	-0.055655714
144	0x3c9c28d7	0.019062443
145	0xbdf3f159	-0.11911268
146	0xbd9f406c	-0.07775959
147	0xbd8c641f	-0.06855034
148	0xbd21e13f	-0.039521452
149	0x3dae1a70	0.08501136
150	0x3d61528b	0.05501036
151	0x3cff0b1e	0.03113323
152	0xbd8f5dd5	-0.07000319
153	0x3db37bb1	0.08763827
154	0x3c617360	0.013760418
155	0xbd18dcfb	-0.03732012
156	0x3d16bbe7	0.03680029
157	0x3cc054e5	0.02347798
158	0xbd3495db	-0.044088226
159	0x3d3272c5	0.043566484
160	0xbd355757	-0.044272747
161	0x3d54f6c0	0.05199313
162	0x3e032f21	0.12810947
163	0x3c0b46f2	0.008500801
164	0xbcf78fbc	-0.030219905
165	0xbb5ae63e	-0.0033401395
166	0xbddacb1d	-0.10683272
167	0x3afe1a5c	0.0019386518
168	0x3d896330	0.06708372
169	0xbd797528	-0.060902745
170	0x3d91271e	0.07087539
171	0xbda786bc	-0.081799954
172	0x3de23acd	0.110463716
173	0xbd0752b1	-0.033037845
174	0xbd9753ed	-0.073890544
175	0xbdd6a0aa	-0.10479863
176	0xbd2c099f	-0.042001363
177	0xbdd6470a	-0.104627684
178	0xbcbf16b7	-0.023326261
179	0x3d271bc0	0.04079795
180	0x3cac37b0	0.021022648
181	0xbe138f6e	-0.14410183
182	0xbd959512	-0.073038235
183	0xbd9af366	-0.07565956
184	0x3d56a138	0.052399844
185	0xbd11bf83	-0.03558303
186	0x3d36afd7	0.044601288
187	0x3d339b0f	0.043849047
188	0xbdff63a3	-0.12470176
189	0xbd877df5	-0.06615821
190	0xbcc6c48d	-0.024263645
191	0x3e02d2f0	0.12775779
192	0xbdaf2ae5	-0.08553103
193	0xbde111c3	-0.10989716
194	0x3c7b1dc3	0.01532692
195	0xbd6d596e	-0.057946615
196	0x3d04c00b	0.03240971
197	0xbd84716c	-0.06466946
198	0xbdc9231e	-0.09821151
199	0xbd8d9fbd	-0.06915233
200	0x3c2b454a	0.0104535315
201	0x3daebe60	0.08532405
202	0xbddd8abf	-0.10817479
203	0xbd853906	-0.06505017
204	0xbda9fa15	-0.082996525
205	0xbd2f634e	-0.042819314
206	0xbdd14b44	-0.10219434
207	0xbdbd53ec	-0.092445225
208	0xbd74d2e0	-0.05977142
209	0xbd94633d	-0.07245491
210	0xbe26be86	-0.16283616
211	0xbc2f1148	-0.0106852725
212	0xbdcdb086	-0.10043435
213	0xbce2e5bb	-0.027697435
214	0x3cceb7f4	0.0252342
215	0xbbf60c13	-0.0075087636
216	0x3e1a045f	0.1504073
217	0x3b97e75b	0.004635734
218	0x3a9c8499	0.0011941373
219	0x3c1fcd43	0.009753528
220	0x3cca5b20	0.024701655
221	0x3d8e217b	0.0693998
222	0xbdd98e16	-0.10622804
223	0xb9da93eb	-0.00041690408
224	0xbe08da1e	-0.13364455
225	0x3df6344e	0.12021695
226	0xbd007ccc	-0.031369016
227	0x3d9f5872	0.077805415
228	0x3cf806ee	0.030276742
229	0xbda3d8d1	-0.08000339
230	0xbde28dcd	-0.110622026
231	0x3bfd766b	0.007735064
232	0xbda16c96	-0.07882039
233	0x3def7a72	0.116932765
234	0x3d2216fc	0.0395727
235	0xbdad6e16	-0.08468263
236	0x3dd786e8	0.10523778
237	0x3d062ef8	0.032759637
238	0xbb9bfc21	-0.0047602807
239	0x3e053554	0.13008624
240	0x3e7818d3	0.2422822
241	0x3d9c3032	0.0762638
242	0xbd380e41	-0.04493547
243	0x3da8a316	0.08234231
244	0x3e39bc88	0.18138325
245	0x3df35925	0.11882237
246	0xbcdb4afb	-0.026769152
247	0xbb827d04	-0.003982188
248	0xbc246129	-0.01003293
249	0xbd481ded	-0.048856664
250	0xbd8e1980	-0.069384575
251	0xbd5f3574	-0.054494336
252	0x3c0e90cf	0.008701517
253	0x3da6444a	0.08118494
254	0xb9f60aa2	-0.00046928698
255	0x3cd95123	0.026527947

fc2.bias f4 [84]
0	0xbd5e51d0	-0.05427724
1	0x3d9d4a43	0.0768018
2	0x3d663eb8	0.056212157
3	0xbce22157	-0.027603788
4	0x3c30b6ce	0.0107857715
5	0x3cb2daf9	0.02183293
6	0xbdbcb06d	-0.09213338
7	0xbd0492ef	-0.03236669
8	0xbd2e046c	-0.042484686
9	0xbda236b8	-0.07920593
10	0xbdc16be2	-0.09444405
11	0xbdb9e910	-0.09077656
12	0xbd53ad3f	-0.051678892
13	0xbdfc860c	-0.12330255
14	0xbd06f377	-0.03294703
15	0xbd0e6ce5	-0.03477182
16	0xbc594d63	-0.013263079
17	0xbcb51662	-0.0221054
18	0xbd850529	-0.06495125
19	0xbc07acc8	-0.00828094
20	0x3c4e1f84	0.012580756
21	0xbce88189	-0.02838208
22	0xbd361b76	-0.044459783
23	0xbccad786	-0.024760973
24	0xbd75899b	-0.059945684
25	0xbd37708a	-0.04478506
26	0xbb5902ac	-0.0033113165
27	0xbd323fcd	-0.043517876
28	0x3b28d32a	0.002576063
29	0x3c2d124b	0.010563443
30	0x3c27ece3	0.010249349
31	0x3c7795a7	0.0151113635
32	0xbd64ccdb	-0.055859428
33	0x3a43a544	0.0007463286
34	0xbdd3a207	-0.10333639
35	0xbdae1506	-0.08500104
36	0xbe0fbbb6	-0.1403645
37	0x3cbd7cc6	0.023130786
38	0xbd09dbba	-0.033656813
39	0xbe0cc6dd	-0.13747735
40	0xbd1684e8	-0.036747843
41	0xbe0d6bcd	-0.13810654
42	0x3d1e234e	0.038607888
43	0xbd84b37b	-0.06479546
44	0xbd942d37	-0.072351865
45	0xbd6cf980	-0.05785513
46	0x3c7b4a96	0.015337607
47	0xbcfbf352	-0.030755673
48	0xbd79355c	-0.060841903
49	0xbc3008e9	-0.010744312
50	0xbdade43f	-0.084908
51	0xbcaabcf9	-0.020842062
52	0xbd6946dd	-0.056952346
53	0xbda434f5	-0.08017913
54	0xbd873c29	-0.066032715
55	0xbd68f156	-0.05687078
56	0xbceda5d2	-0.029009733
57	0xbc7fa947	-0.015604324
58	0xbd91e680	-0.071240425
59	0xbd83ca6a	-0.06435092
60	0xbde09284	-0.10965446
61	0xbc46d664	-0.012136076
62	0xbbc64592	-0.006050774
63	0xbd0e4415	-0.034732897
64	0x3e0c26ef	0.13686727
65	0xbccd8187	-0.025086178
66	0x3ca71c2c	0.020399176
67	0xbd93b00c	-0.07211313
68	0x3df1eb0d	0.118124105
69	0x3c8725e9	0.01649757
70	0x3dc8667b	0.097851716
71	0xbd9ed94f	-0.07756292
72	0xbc99d5e8	-0.018778756
73	0xbd4d6c25	-0.050151963
74	0xbd319f9e	-0.043365113
75	0xbd56492a	-0.05231587
76	0xbe2816c7	-0.16414939
77	0x3d66b427	0.05632415
78	0xbd20975f	-0.03920686
79	0xbd286059	-0.04110751
80	0xbd5e94a4	-0.054340973
81	0xbda25038	-0.07925457
82	0xbdbe1af7	-0.09282487
83	0x3b4f0553	0.0031588867

fc3.weight f4 [10, 84]
0	0x3cff5d80	0.031172514
1	0xbe507093	-0.20355444
2	0xbe172b93	-0.14762716
3	0x3d32cc36	0.043651782
4	0x3e00c626	0.12575588
5	0x3d3ebeaa	0.04656855
6	0x3d5e913b	0.05433772
7	0xbe24c947	-0.16092406
8	0xbcb0505d	-0.021522695
9	0xbdc40c7b	-0.09572693
10	0x3dca1a0a	0.09868248
11	0xbcb974c4	-0.022638686
12	0xbde9a086	-0.114075705
13	0xbd86406d	-0.06555257
14	0x3b48d2de	0.0030643265
15	0x3df48245	0.119389094
16	0xbe075b08	-0.1321832
17	0xbd0ae9a4	-0.033914223
18	0xbbfe12b0	-0.0077536926
19	0xbdb4e47b	-0.08832642
20	0xbc30c8a6	-0.010790026
21	0x3c46bd50	0.012130097
22	0x3d036ac9	0.03208426
23	0x3d9fbbd7	0.077994995
24	0xbddf6562	-0.10908009
25	0xbc710178	-0.014709823
26	0x3d277d8b	0.04089121
27	0x3d351d22	0.044217236
28	0x3d6824ce	0.056675725
29	0xbc44a900	-0.012003183
30	0x3c5392af	0.01291339
31	0x3d3ea5fd	0.046545018
32	0x3d8d39a3	0.06895759
33	0x3cc0862f	0.023501484
34	0x3da5249c	0.08063623
35	0xbda31071	-0.0796212
36	0x3cfd0042	0.030883912
37	0x3cee552b	0.029093346
38	0x3d8ef452	0.06980194
39	0xbd1d3b70	-0.038386762
40	0xbd2efa33	-0.042719077
41	0x3c2fe6d8	0.01073619
42	0xbd9dc988	-0.07704455
43	0xbbcb3e75	-0.006202514
44	0xbd757c64	-0.05993308
45	0x3c18de8b	0.009330402
46	0xbc4d2c15	-0.012522717
47	0xbd265b30	-0.040614307
48	0xbd64775c	-0.055777892
49	0x3d07f4c1	0.0331924
50	0x3d683f6e	0.056701116
51	0xbd008765	-0.031379122
52	0x3d946ff2	0.072479144
53	0x3cafffe8	0.02148433
54	0x3d151823	0.03639997
55	0x3db033aa	0.08603604
56	0xbd9bebe7	-0.07613354
57	0xbe057be1	-0.13035537
58	0xbcdc8edf	-0.026923595
59	0xbd66ff88	-0.056396037
60	0x3c02c6d8	0.007981978
61	0x3d6e07fb	0.05811308
62	0xbda1d93e	-0.07902764
63	0xbd88174b	-0.06645068
64	0xbe5f8bc1	-0.21830656
65	0xbd1b7f3e	-0.037963144
66	0x3a297c1c	0.0006465332
67	0x3db2d510	0.08732045
68	0xbd4eadf8	-0.05045888
69	0xbd81be4a	-0.06335123
70	0xbda44204	-0.08020404
71	0x3d8a9575	0.06766788
72	0xbd953ea5	-0.07287339
73	0x3ccce50a	0.025011558
74	0xbdd1e06c	-0.10247883
75	0x3c5bb122	0.013408931
76	0x3d8baaf6	0.068197176
77	0x3caefc9e	0.021360692
78	0x3bbdeb78	0.0057958923
79	0xbd0df867	-0.034660723
80	0x3d92c636	0.07166712
81	0x3ddd8c9e	0.10817836
82	0x3bac24bb	0.005253402
83	0xbd09fa77	-0.033686128
84	0x3d47a472	0.04874081
85	0xbda96e3e	-0.0827298
86	0xbdaf15cd	-0.0854908
87	0xbe22bd2b	-0.15892474
88	0x3db76143	0.08954098
89	0xbd9e255d	-0.0772197
90	0xbcad38aa	-0.021145184
91	0xbdf2fb91	-0.11864389
92	0xbdea327a	-0.11435409
93	0x3dea1183	0.11429121
94	0x3d0cef0e	0.034407668
95	0x3bd171e2	0.0063917497
96	0xbc4e77d0	-0.012601808
97	0xbc84e06d	-0.016220296
98	0xbd300ce8	-0.04298106
99	0xbe02565d	-0.12728257
100	0xbc354337	-0.011063389
101	0x3de6bef8	0.11266893
102	0x3d8984b0	0.06714761
103	0x3e06c118	0.13159597
104	0x3dbbee08	0.0917626
105	0x3cc471a3	0.023979967
106	0xbc0659e5	-0.008200143
107	0x3d5004dc	0.050785884
108	0xbe51a9f9	-0.20474996
109	0x3d3e07f9	0.046394322
110	0x3e13ec2f	0.14445566
111	0x3dc17b6c	0.09447369
112	0x3da35dea	0.07976897
113	0x3d9d6537	0.07685321
114	0xbe2018bc	-0.15634435
115	0x3d80ef31	0.06295622
116	0xbdb38bd9	-0.08766908
117	0x3d066f62	0.032821067
118	0xbc46c75f	-0.012132495
119	0x3c0d5425	0.008626019
120	0x3d6e4b89	0.058177505
121	0x3e0e0eb2	0.13872793
122	0xbd057d2e	-0.032590084
123	0x3d072853	0.03299744
124	0x3e08a707	0.13344966
125	0xbd8cb0d1	-0.068696626
126	0x3d99614e	0.074892625
127	0xbd9841fa	-0.07434459
128	0xbcb33325	-0.021874974
129	0xbd169ac4	-0.03676869
130	0x3d6031d4	0.05473502
131	0x3bf03444	0.0073304493
132	0x3daacbed	0.08339677
133	0xbcb7bf4b	-0.022430083
134	0xbd497fea	-0.049194254
135	0xbc4046af	-0.011735602
136	0xbb24a20b	-0.0025121
137	0xbc140390	-0.0090340525
138	0x3d194172	0.03741593
139	0xbd224ddf	-0.039625045
140	0x3e26f3f1	0.16303994
141	0x3d5a0dd0	0.05323583
142	0x3db04792	0.08607401
143	0x3d7bf3d2	0.061511822
144	0xbc790ced	-0.015200836
145	0x3e1bd08a	0.1521627
146	0xbb8947c3	-0.004189463
147	0xbda8365b	-0.082134925
148	0xbe272e83	-0.16326337
149	0x3cba5af0	0.02274844
150	0xbb58aaf9	-0.0033060892
151	0x3b7170fe	0.003684103
152	0xbe2b2f76	-0.16717324
153	0x3bffe534	0.0078093056
154	0xbd83f205	-0.06442646
155	0xbd695847	-0.056968953
156	0x3bb0b818	0.0053930394
157	0xbd299f7b	-0.041411858
158	0x3d3275d0	0.043569386
159	0xbd3c29fe	-0.045938484
160	0xbc84d548	-0.016214982
161	0xbb03627d	-0.0020047717
162	0x3d84c522	0.064829126
163	0x3d784880	0.060616016
164	0xbd72fb53	-0.059321713
165	0x3c62b31b	0.013836647
166	0x3cdecb3e	0.027196523
167	0xbda4be64	-0.08044127
168	0x3d17fe9f	0.03710806
169	0xbceeb759	-0.029140161
170	0x3d204c6d	0.039135385
171	0x3e09d03e	0.13458344
172	0xbd253eae	-0.04034298
173	0xbe1f1f77	-0.15539347
174	0xbcff6987	-0.031178249
175	0xbb839533	-0.0040155887
176	0xbdde2265	-0.10846404
177	0xb9c6ba73	-0.00037904418
178	0x3db4be9e	0.0882542
179	0x3cfa3856	0.030544441
180	0x3ddca3ce	0.10773431
181	0x3c86718c	0.016411565
182	0xbd2f5253	-0.04280312
183	0x3cd77d05	0.026304731
184	0xbc3b8b65	-0.011446808
185	0x3d42873c	0.04749225
186	0x3e05f90f	0.1308329
187	0xbb004510	-0.0019572414
188	0xbd2292bc	-0.039690718
189	0xbddf2f4f	-0.10897695
190	0xbb486b64	-0.0030581588
191	0xbdac35a5	-0.084086694
192	0xbc445d51	-0.011985139
193	0xbcc5c811	-0.02414325
194	0x3cc1b745	0.02364696
195	0xbdb88d0a	-0.09011276
196	0x3d8ce368	0.06879312
197	0xbc0956be	-0.008382497
198	0xbe14b51f	-0.14522217
199	0x3b97325b	0.004614157
200	0x3dc01b0f	0.09380161
201	0xbbd399f3	-0.006457561
202	0x3bb849ef	0.005624048
203	0xbd1c787c	-0.03820084
204	0xbc024192	-0.0079502035
205	0xbde68633	-0.11256065
206	0xbd9b44b9	-0.07581467
207	0xbd247b75	-0.0401568
208	0x3d13e6f6	0.036108933
209	0xbc983d10	-0.018583804
210	0xbd0ef77f	-0.034904
211	0x3daf32f0	0.085546374
212	0x3e28b06a	0.16473547
213	0xbc543dbf	-0.012954175
214	0x3c30295b	0.010752047
215	0xbd8bc6d4	-0.06825033
216	0x3db7b18e	0.08969413
217	0x3d400ce3	0.04688729
218	0xbcb24222	-0.02176005
219	0xbd8e019e	-0.06933902
220	0xbddd3f31	-0.108030684
221	0xbd66ae8b	-0.0563188
222	0xbdd3312c	-0.10312113
223	0xbda2179c	-0.079146594
224	0xbc4e9976	-0.01260983
225	0x3d51f7d1	0.051261727
226	0xbc43f742	-0.011960806
227	0x3d1dff3d	0.038573492
228	0x3d3c4f94	0.04597433
229	0x3ce126b3	0.027484274
230	0x3c730ae9	0.014834144
231	0x3d9863b1	0.074408896
232	0xbc9e1e79	-0.01930164
233	0xbba8f401	-0.0051560407
234	0x3ce22a5b	0.027608087
235	0xbdfffe22	-0.12499644
236	0x3cfc28a0	0.03078109
237	0xbd5cf9b0	-0.053949058
238	0xbd4d0fd8	-0.050063938
239	0x3dda41d0	0.10657084
240	0xbe07ad56	-0.13249716
241	0x3d84ec9d	0.06490443
242	0xbda752c5	-0.08170084
243	0xbd92c947	-0.07167297
244	0x3cb751c9	0.022377865
245	0x3d7e7923	0.062127244
246	0xbd4f3536	-0.050587855
247	0xbddb3072	-0.107025996
248	0x3ba4232a	0.0050090747
249	0xbca64dd9	-0.020300793
250	0xbcaa7686	-0.02080847
251	0x3d7c5043	0.06159998
252	0xbe04a952	-0.12955216
253	0x3d03384a	0.032036103
254	0x3e4712d4	0.19440776
255	0x3bcf0472	0.0063176686
